best_hsi_3dcnn_model.pth (torch, 985125 bytes, 16 tensors)

features.0.weight f4 [16, 1, 3, 3, 3]
000000 9c 7e bb bd 05 1b 2a 3e c5 7c 43 bd 61 79 e7 bd
       -0.09155008 0.1661187 -0.04772641 -0.11302448
000010 b8 6d 01 bc 57 4b 34 be a8 e1 f3 bb 3d 2e 35 bd
       -0.007899694 -0.17606865 -0.007442672 -0.04423355
000020 d1 dc 1c 3e 82 02 27 3d c8 9e 3d 3c 3d 86 ca 3d
       0.1531861 0.040773876 0.011573501 0.09888885
000030 1b 18 c6 3d ed 2c 04 be 78 3a cc bd 16 c0 1b 3c
       0.096725665 -0.12907763 -0.099720895 0.009506246
000040 1e 8c 24 bd a9 2b d7 bc 92 6d 09 3e 5e b0 8b bd
       -0.04017269 -0.026265936 0.13420704 -0.06820749
000050 9b b5 7a 3d 31 30 56 bd 6e 98 06 be 85 73 41 be
       0.06120835 -0.052292053 -0.13144085 -0.18891723
000060 ed 2e b7 bd 6b fa e8 bd fa 37 d5 3c be 1c 19 be
       -0.08944497 -0.113758884 0.026027668 -0.1495237
000070 39 04 92 3d b7 22 6e bd 12 a2 bf 3d 02 7a cc 3d
       0.07129712 -0.058138575 0.09357084 0.09984209
000080 d8 69 27 3e 16 f9 21 bd 71 a4 55 3d 81 a9 a0 3d
       0.1634897 -0.039544187 0.052158777 0.0784483
000090 10 54 4a 3e cb 6c 32 bd 3b b8 1b 3d 87 2f 89 3d
       0.1975863 -0.043560784 0.038017493 0.06698518
0000a0 d0 66 90 bd a3 47 06 bc e8 c9 24 be 3d 1c 2b be
       -0.0705086 -0.00819579 -0.16092646 -0.16709991
0000b0 d7 58 3f 3e 9c b4 00 3d ae de 23 3e ee 19 fe bd
       0.18686233 0.031422243 0.16002914 -0.124072894
0000c0 b2 81 c2 bd bf f1 cf 3d 5e 5e e8 bd b3 1d 11 3c
       -0.09497394 0.10153531 -0.11346124 0.0088571785
0000d0 e0 50 84 bd b1 fc ae bd 8a 10 c8 3d a3 d9 ed 3c
       -0.06460738 -0.08544291 0.097687796 0.029034441
0000e0 49 b5 f6 bc 6e e4 e9 bc 43 68 40 3e 8d 6d 85 bc
       -0.03011574 -0.028551307 0.18789773 -0.01628759
0000f0 06 07 ba bd 52 28 05 bd fd a9 a5 3c 44 9f c2 3d
       -0.09083371 -0.032509156 0.020222658 0.09503034
000100 b7 78 de bd 7f 6c 00 3e 45 ca 9a 3d 59 6f ae 3c
       -0.10862868 0.12541388 0.07558111 0.02129333
000110 0f c3 08 3d c3 98 d7 3d ca 2a 8b bd 4e 24 77 bd
       0.033389147 0.10527184 -0.06795271 -0.060337357
000120 5b 26 7c 3c 61 ae 18 be 1b 44 db bc df 0c 3e be
       0.015390004 -0.1491027 -0.026765874 -0.18559597
000130 d3 e0 68 bc 75 16 34 be a9 10 09 be 33 ae 0c 3d
       -0.0142137585 -0.17586692 -0.13385262 0.034345817
000140 2e 49 3d 3e dc 44 86 bd 90 ce f1 bc 33 57 88 bd
       0.18484947 -0.06556103 -0.029517442 -0.06657257
000150 4d 5c d3 3c 4f 95 01 be 21 df 1c be 1d 76 33 be
       0.025800848 -0.12654613 -0.15319492 -0.17525525
000160 b5 6e 3c be e0 d9 1d bd 9e 2b 30 bd 98 5d 8b 3c
       -0.18401606 -0.03853786 -0.043010347 0.017012402
000170 60 eb 43 3e 57 ff 76 3d d8 57 9f bc 82 0c a4 3d
       0.19132757 0.060302105 -0.019451067 0.08010198
000180 e0 fe ee bd 5e e5 5e bd 27 86 1c be 2c 1c 73 bd
       -0.11669707 -0.05441796 -0.1528555 -0.05935304
000190 bc 8b ec 3d 1f da 4a 3c 06 a6 fe bd 51 9d 1a be
       0.1155009 0.012381106 -0.1243401 -0.15099074
0001a0 60 9a c6 3d 1a 27 24 3e be 38 06 3e 8d 80 a0 bd
       0.096974134 0.16030541 0.13107583 -0.07837019
0001b0 f0 1f 56 3c 34 42 19 be 5c 40 43 3e db 43 17 be
       0.013069138 -0.1496666 0.1906752 -0.14771979
0001c0 f6 61 97 3d 2e e9 04 be 4a 77 a3 bd 01 11 34 3e
       0.073917314 -0.12979576 -0.07981737 0.17584611
0001d0 46 8b 21 be 19 09 2b be c4 49 89 bd e1 e3 26 be
       -0.15775785 -0.16702689 -0.06703523 -0.16297866
0001e0 b7 73 9c 3d 72 5e 01 3d e4 e2 14 be a8 cb 9d 3c
       0.07639258 0.03158421 -0.14539677 0.01926215
0001f0 29 39 32 be 2f b3 00 be f8 cc ee 3d 61 5d b2 3d
       -0.17404617 -0.12568353 0.116601884 0.08709217
000200 12 e2 83 3d d1 66 03 3e 09 1a 63 3d a9 98 ea bd
       0.06439604 0.1283219 0.05544475 -0.11454899
000210 52 8f 31 3e cd ca 6a 3d 8e 8c d8 bb 95 f9 d7 bc
       0.17339829 0.057322312 -0.0066085523 -0.026364127
000220 51 0f 8a 3d 9c bc ad bd 12 a5 7f bd 97 ab 19 bb
       0.067412026 -0.0848324 -0.062413283 -0.0023448223
000230 19 91 c7 bd fe ea 5a 3e a1 24 d1 3d 58 0c c9 bd
       -0.09744472 0.21378705 0.102120645 -0.098168075
000240 de 9b c1 bd 20 07 48 bd f6 70 15 be 2b 30 37 3d
       -0.094535574 -0.04883492 -0.14593872 0.04472367
000250 f8 f2 c6 bd af a5 85 3d 57 8d 29 be 38 f2 6f 3d
       -0.09714311 0.06525742 -0.16557823 0.058580607
000260 1b fa f5 bd b6 91 1a bd e2 46 49 3e e9 74 14 3e
       -0.120105945 -0.037736617 0.19655946 0.14497723
000270 b0 c5 c1 bd 87 01 78 3d ce 25 15 3c 28 a9 b0 3d
       -0.09461534 0.06054833 0.009103252 0.08626014
000280 1b ee 89 bd 0e ca 8d 3d 1f d4 fe bd da a5 38 3e
       -0.06734868 0.069233045 -0.12442803 0.18032017
000290 93 d4 e1 3d 78 f9 09 bd 49 a3 80 bd 86 05 b0 bd
       0.110268734 -0.033685178 -0.06281144 -0.085948035
0002a0 90 c9 8b 3d 4b 06 0c 3e e4 dc 4b be dc 68 92 bc
       0.06825554 0.13674276 -0.19908482 -0.017872266
0002b0 b3 79 21 bd 0b 4b d2 3d 89 b8 b5 bd c5 a0 2e 3e
       -0.039422702 0.102682196 -0.08873088 0.17053516
0002c0 f2 a1 ef 3c 8e b1 3a bd c9 f4 07 3e e0 ba 3e 3e
       0.029252026 -0.045579486 0.13276972 0.18625975
0002d0 1f e6 4c bd dd 22 f0 3c 3f f3 8c bd 7a 59 c6 3d
       -0.050024148 0.0293135 -0.06882333 0.09685035
0002e0 5c ed ea 3d 0e 6a de bd a0 df c8 bd ae 34 d4 3d
       0.11471054 -0.10860072 -0.09808278 0.1036161
0002f0 85 50 f5 3d e2 fd 0c 3e 49 9e 6d 3d 21 36 c4 bd
       0.119782485 0.13768724 0.05801228 -0.09580637
000300 b7 0c fa 3d d6 9a de bd f3 34 f3 bc 4d 5d b6 bc
       0.122094564 -0.10869376 -0.029688334 -0.022261286
000310 f8 64 2e be 4d 62 1e 3e 43 90 23 bc 1f ed e8 3d
       -0.17030704 0.15467186 -0.009983125 0.11373352
000320 b3 db 40 be 8c da 4c bd 10 33 95 3c 35 94 8a bd
       -0.18833809 -0.05001311 0.018212825 -0.067665495
000330 c9 bb eb bc 22 66 12 be 3e 67 e2 3d 2a f6 27 be
       -0.028776066 -0.14296773 0.11054848 -0.16402498
000340 27 50 05 3e a0 46 4b 3e 8c ec 22 3d dc 1d 0a be
       0.13018857 0.1985116 0.03977637 -0.13487953
000350 0d 9b ad bd c4 53 fb 3c fe 54 b1 3d 0c a8 c4 3d
       -0.08476839 0.030679591 0.08658789 0.09602365
000360 9d 11 07 3e b3 cc 0f 3e 2d 70 c9 bc ac b9 7e bd
       0.13190313 0.1404293 -0.024589622 -0.06218879
000370 af f8 e8 3d d7 66 28 be 11 27 28 3c 2e a4 26 3b
       0.11375558 -0.1644548 0.01026322 0.0025427449
000380 07 85 ca bd 47 c6 39 bd be c1 3a be a8 bc 21 3e
       -0.09888654 -0.045355108 -0.1823797 0.15794623
000390 ee 9f 38 3c 1d 41 87 bd 11 52 17 3d 26 d0 96 3d
       0.011268599 -0.06604216 0.0369435 0.0736392
0003a0 8e eb f9 3d 06 1a 32 3e 1b fd 2a 3e b9 23 53 bb
       0.122031316 0.1739274 0.16698115 -0.0032217337
0003b0 31 dc a1 3d 36 75 33 bc 90 bf 59 3d 4b 44 04 be
       0.07903326 -0.010953238 0.053161204 -0.12916677
0003c0 32 ff 3d 3d 92 fa 87 3d 31 3a bb 3c 9d 0b 22 3e
       0.04638595 0.06639589 0.022854896 0.15824743
0003d0 db 0c 81 bd a3 41 1d 3c 67 5d 81 bb f5 05 00 bd
       -0.0630128 0.009598169 -0.003947902 -0.03125568
0003e0 66 12 51 3d 31 a0 29 be cb c0 05 3e d5 be 62 bd
       0.051042937 -0.16565014 0.13061826 -0.055357773
0003f0 29 ee 4d 3d 61 9d 8a bd 91 0c 3b be 09 a6 95 bd
       0.050275955 -0.06768299 -0.18266512 -0.07307059

features.0.bias f4 [16]
000000 05 42 81 ba 20 04 d2 38 d4 98 c6 bb d9 82 dd 38
       -0.0009861594 0.00010014349 -0.006060699 0.000105624735
000010 4b c8 39 39 d2 63 2f 37 be 95 2e 37 5d ca 95 3b
       0.0001771759 1.0454054e-05 1.0406073e-05 0.0045712427
000020 02 42 a5 3c b2 76 b9 b8 dd bf 0f ba 89 47 80 3b
       0.020173077 -8.843596e-05 -0.0005483607 0.0039147777
000030 47 1f ea 36 16 20 80 bc 84 54 15 3b c0 0a 22 ba
       6.9773846e-06 -0.0156403 0.002278597 -0.00061814114

features.1.weight f4 [16]
000000 cd fa 78 3f fd 0f 84 3f 61 55 77 3f fc 10 7a 3f
       0.9725769 1.0317379 0.9661465 0.97682166
000010 d5 c1 7a 3f 56 43 7f 3f 58 13 80 3f ea fc 84 3f
       0.97952014 0.9971212 1.0005903 1.0389683
000020 d1 2f 7e 3f 52 a7 84 3f 89 34 84 3f 29 56 80 3f
       0.9929171 1.0363562 1.0328532 1.0026294
000030 a4 7c 78 3f dd 43 83 3f ff 50 77 3f 13 dd 7d 3f
       0.97065187 1.0255085 0.96607965 0.9916546

features.1.bias f4 [16]
000000 b2 10 06 bd 7f f0 cd bc 52 23 14 bd 3c 98 b3 bc
       -0.032730766 -0.025139092 -0.036166497 -0.021923177
000010 10 da c6 bc 9e d0 0d bd f3 99 8b bc 35 28 03 bd
       -0.024273902 -0.03462278 -0.017041182 -0.032020766
000020 bd 0a dc bc 3c ba 67 bc 16 d7 16 bd b2 d0 b2 bc
       -0.02686059 -0.014143523 -0.036826216 -0.02182803
000030 29 2c 14 bd 27 ef 1a bd d0 ad 0f bc ac 9d c8 bc
       -0.036174927 -0.03782573 -0.0087694675 -0.024489246

features.1.running_mean f4 [16]
000000 30 30 8a ba be 6a a5 b7 ba 87 d1 bb 5b 60 fb ba
       -0.0010542925 -1.9719238e-05 -0.0063943537 -0.0019178496
000010 bd f0 c5 ba e6 8a c4 b9 24 c9 32 3b df 1a b3 3b
       -0.0015101653 -0.0003748752 0.0027280534 0.00546585
000020 c0 e9 c4 3c 1e 87 a7 ba 9d 11 22 ba f2 bf e6 3b
       0.024037242 -0.0012781357 -0.0006182434 0.0070419246
000030 11 89 9d ba 49 ae 84 bc 69 bc 40 3b 21 72 46 3b
       -0.0012018998 -0.016196387 0.0029409176 0.0030280428

features.1.running_var f4 [16]
000000 6d c3 82 3e c3 a6 2d 3d 67 42 1e 3d b4 32 c9 3e
       0.25539723 0.042395364 0.038637545 0.39296496
000010 4c c5 6a 3e 98 b9 46 3d 1c f4 a9 3e e3 16 65 3c
       0.22926825 0.04851684 0.33194053 0.013982507
000020 8e 00 80 3e 6b c2 d1 3c c7 4e d0 3c 8d 79 38 3d
       0.25000423 0.025605401 0.025428189 0.045037795
000030 6d c9 0e 3e 0b 25 0c 3e 81 be 6e 3d 3e 67 9b 3f
       0.13944025 0.13686006 0.058287147 1.2140882

features.4.weight f4 [32, 16, 3, 3, 3]
000000 b5 2e 51 3d 23 ab 2d bd f5 5f aa 3c 2d df 08 bd
       0.051069934 -0.042399537 0.020797709 -0.033415962
000010 19 cf 04 bd f4 61 e6 3c ca 27 15 bd 0a f3 47 bc
       -0.032424066 0.02812288 -0.0364149 -0.012203941
000020 9a b1 21 3d fe b1 98 bc 6c 99 ce bc d3 64 5d bc
       0.039476015 -0.01863956 -0.025219642 -0.013512808
000030 8e e8 b5 bc 1c ba 5a 3d 5b 9f 4d 3c 6c 6f 85 bc
       -0.022205617 0.053400144 0.0125502 -0.016288482
000040 84 1e 27 bc cc ea 0f bc bf 2d c8 3c 9a a4 ee 3c
       -0.010200147 -0.008784007 0.024435876 0.029131223
000050 5e c1 f0 3c 02 1d ed bb 47 69 c3 bc c0 99 46 3c
       0.02938908 -0.007236124 -0.023853911 0.012121618
000060 83 82 bf bc 60 77 57 3c 79 79 90 bc 1f 53 f2 3c
       -0.023377663 0.01315102 -0.017636048 0.02958065
000070 4c 39 dc bc 6f 4f 9d bb 93 cb 21 bc fc ed 19 bb
       -0.02688279 -0.004800729 -0.009875196 -0.0023487797
000080 3f e6 01 3c 57 55 41 3c 4c ad 0d 3d e5 4b 81 3d
       0.00792843 0.011800132 0.034589097 0.06313304
000090 a5 1c 44 3d 71 41 49 bd 6f 44 de bb 80 b3 92 3c
       0.04787888 -0.049134675 -0.0067830603 0.017907858
0000a0 d6 18 c8 bc 34 43 8f bd d0 07 60 bc ae ad 7f 3c
       -0.024425905 -0.0699524 -0.013673738 0.015605373
0000b0 23 f7 70 bc bd aa dc 3a 77 1e 0d b7 1f cd 94 3c
       -0.0147073595 0.0016835552 -8.411348e-06 0.018164216
0000c0 ae a8 a8 bc 3e 37 19 3c fe ec 95 bd 15 6f db bb
       -0.020588245 0.00935155 -0.07320593 -0.0066965916
0000d0 b6 f2 0f 3d 49 4d 74 bd d9 db fc 3a 9f b1 18 3d
       0.035143577 -0.059644017 0.0019291594 0.037278768
0000e0 3f a5 ae 3c dc 9f 0a bd 29 23 59 bd 65 28 52 bd
       0.02131903 -0.03384386 -0.053012047 -0.051308054
0000f0 80 e1 85 3c 6b 17 ba 3c a9 06 56 3c 37 23 cb 3c
       0.016342878 0.022716245 0.013063111 0.024797065
000100 f0 16 00 bd 3f 74 0c 3b a8 18 15 bd a0 f4 3b bd
       -0.031271875 0.0021431593 -0.036400467 -0.04588759
000110 58 a5 fa 3c 3f e1 6f 3c 27 1e 98 bc e6 23 18 3c
       0.03059642 0.014641105 -0.018569065 0.009285903
000120 73 de 0f 3d 74 ae 5d 3c 30 64 b8 bb f7 23 3f 3d
       0.035124253 0.013530362 -0.0056271777 0.046665158
000130 4e e1 07 3d e3 27 a1 bc fc db 47 3d 0e 24 42 3d
       0.03317385 -0.01967234 0.048793778 0.047397666
000140 0d 41 70 3c b9 82 54 bc 61 06 9f 3a 64 0f 06 3d
       0.014663947 -0.01297062 0.0012132638 0.03272952
000150 d3 6c ab bc 0b 06 8a bb c0 6b 60 3c 64 4a a4 3c
       -0.020925915 -0.004212146 0.013697565 0.020055003
000160 7c 96 1c bd 45 8a 3a bd 55 c0 9d 3b ca 2b 0d 3d
       -0.03822945 -0.04554202 0.0048141875 0.03446559
000170 6d 3c 0c 3d f0 26 b6 bc 21 68 02 bd 41 9a 45 bc
       0.034237314 -0.022235364 -0.031837586 -0.012060703
000180 a8 6b e4 bc 4c 89 43 3d 90 f3 8c ba 06 3a 26 bc
       -0.027883366 0.04773836 -0.001075374 -0.01014567
000190 dc 9f 11 bd 82 0f 96 3c 52 4c b4 3c e6 f2 fa bc
       -0.035552844 0.018317942 0.022009049 -0.030633401
0001a0 e3 92 26 3a a4 3a 69 3d 38 0a 79 3c 79 1b 32 bc
       0.0006354285 0.05694069 0.01520019 -0.010870808
0001b0 fd 89 a8 3c a9 51 4c 3a cf e8 0e bd ab ac 15 3d
       0.02057361 0.0007794151 -0.034889992 0.036541622
0001c0 78 52 04 bd 0e 6e 39 3c 62 72 7b bc 52 4b ad bc
       -0.03230521 0.011317743 -0.015347095 -0.02115408
0001d0 f6 44 ea 3c 31 cb 2c 3d 36 18 95 bc 53 93 97 bc
       0.028597336 0.042185966 -0.018200021 -0.018502867
0001e0 00 6d c7 bc 99 b3 d1 bc 86 6b 98 3c ce f8 2b bd
       -0.024343967 -0.025598334 0.018605959 -0.041985326
0001f0 11 13 32 3d 2f ed 1d bc ef 18 c1 3c 9f f1 b5 3c
       0.043475214 -0.0096390685 0.02357146 0.02220994
000200 35 e9 93 bc 4c 79 1d bd e1 78 16 bb 3e 61 44 3d
       -0.018055538 -0.038445756 -0.0022960233 0.0479443
000210 ee ae 5c 3c 0f 93 0e bd cf c4 4b bc 0b 14 85 3c
       0.013469441 -0.034808215 -0.01243706 0.016244909
000220 7e de 43 3c 59 fa 1b 3b b7 af fc bb 13 66 04 3c
       0.011954902 0.0023800342 -0.0077113765 0.008080977
000230 a9 14 12 bc 0c d3 d7 bc 3d 84 33 bb 3f 10 7b bd
       -0.008916059 -0.026345752 -0.0027392053 -0.06129479
000240 a9 f7 ce 3c c5 91 46 bc af a3 44 bb e2 72 4d 3d
       0.025264578 -0.012119715 -0.003000479 0.05015839
000250 4e 0d ee bc d6 fd 23 3c 3b 5e 13 bd 45 a2 af bc
       -0.029059079 0.01000925 -0.035978537 -0.02143968
000260 3e 6f bb bc 6f ab a4 bc 9e 1e 8a bc 0c 92 62 3c
       -0.022880193 -0.020101277 -0.016860303 0.013828766
000270 2a 04 cf 3c 4f a5 02 3c 67 c4 e8 ba ae 85 29 3d
       0.02527054 0.007973983 -0.0017758728 0.041387253
000280 72 f5 79 38 fb fa 9e bc 24 61 91 bc 59 77 4c bd
       5.9594815e-05 -0.019406786 -0.017746516 -0.049918506
000290 65 13 2b 3c 1d 4a 92 3c c3 2e 15 3d a4 05 ec 3c
       0.010441636 0.017857606 0.03642155 0.028811283
0002a0 5c 85 6e 3c 0d 91 a4 39 1f 50 9a 3c 22 c2 66 3b
       0.014558163 0.0003138859 0.018837033 0.0035210927
0002b0 1c 77 41 bd 93 17 75 bc 1f 99 00 bb 10 76 40 bd
       -0.047232732 -0.014959234 -0.0019622517 -0.046987593
0002c0 06 05 6d 3c 04 2c 04 bd a1 0d 0c bc 91 88 fd bb
       0.01446653 -0.03226854 -0.008548171 -0.0077372272
0002d0 a5 b4 49 bc 2c 4b 2e bd f1 f5 66 bc 99 bc 30 bc
       -0.012311135 -0.04255216 -0.014096723 -0.010787153
0002e0 ff 13 3e bd 37 7b 60 b9 4c 05 8d 3c f7 d7 9a bc
       -0.04640579 -0.00021408206 0.01721444 -0.018901808
0002f0 0b 36 9e bc 7f 7d 93 bc d5 47 c0 bc 1a 88 10 3d
       -0.01931288 -0.018004177 -0.023471752 0.035286047
000300 92 7e 3b 3b 58 af 67 bd 34 8a 00 3c 02 72 fa bb
       0.0028609377 -0.056563705 0.00784545 -0.0076429853
000310 22 8f 99 bd d8 42 43 3c 94 6b 9b 3c 4c fc a3 bc
       -0.074980035 0.011917792 0.018972196 -0.020017765
000320 07 a2 95 3d dc ec 8c 3c 6f aa 3c 3b af 84 0e 3d
       0.07306295 0.017202787 0.002878811 0.034794506
000330 c7 83 dc 3c 14 a6 94 3c 69 6d 10 3c 51 74 05 3d
       0.026918305 0.018145598 0.008815148 0.03258163
000340 e5 a2 63 3b 95 1c ab 3c f8 a1 c4 ba a5 c5 8d 3d
       0.0034734544 0.020887652 -0.0015001884 0.06922463
000350 45 19 9a bc 89 ed e3 3c 2d a8 8d 3d ff 38 01 bc
       -0.018810878 0.027823227 0.069168426 -0.007887124
000360 39 3c ca 3c 77 f6 0e bd f1 da 16 bd 01 33 7b bb
       0.02468692 -0.034903016 -0.036829893 -0.0038329961
000370 14 a5 08 bd 07 f8 49 bb 2e 35 80 3c db 00 a0 3c
       -0.033360556 -0.0030818002 0.015650358 0.019531658
000380 f0 e9 8e 3c cc ff f7 3c 77 52 d0 bc 70 70 39 3d
       0.017445534 0.03027334 -0.025429947 0.045273244
000390 46 1b 03 bd 69 02 bb bc bc f2 28 3c 53 26 b5 3a
       -0.03200843 -0.022828298 0.010311779 0.0013820626
0003a0 b3 06 38 bd 0c c3 76 3c 0c 19 41 bd f8 af 74 bb
       -0.044928264 0.015061151 -0.047143027 -0.003733633
0003b0 c0 cf f0 39 4a f1 1f bc f1 a7 5e 3b e9 6f 3c 3c
       0.00045931153 -0.009762118 0.0033974613 0.011501291
0003c0 90 5f 3d bd 75 b1 e3 3c 8d 16 01 bd a2 8c 85 bc
       -0.046233714 0.027794579 -0.031515647 -0.01630241
0003d0 da 58 29 3b 89 ae 8f bd 39 d3 1c bd 23 1c 0c 3d
       0.0025840313 -0.07015712 -0.038287375 0.03420652
0003e0 56 a3 af bd f4 48 99 bb 26 22 fa 3c 53 32 e8 bc
       -0.08576076 -0.004677886 0.030533861 -0.028344309
0003f0 63 80 04 bd ac 79 13 3d 68 80 3b 3d e8 de 91 bc
       -0.032349 0.036004707 0.045776755 -0.017806485

features.4.bias f4 [32]
000000 7c 58 c0 b7 5c 21 4e b6 01 ea 02 38 01 79 f1 b6
       -2.2929387e-05 -3.071581e-06 3.121235e-05 -7.1964464e-06
000010 f2 6c b1 b6 da e8 8f 36 66 aa d7 b4 e9 bb 69 36
       -5.287694e-06 4.2888396e-06 -4.0170852e-07 3.4829084e-06
000020 85 46 e6 36 13 e0 a1 35 d8 a8 5d 37 d4 3b af 37
       6.8627437e-06 1.2060649e-06 1.32119385e-05 2.0889485e-05
000030 5f 39 3e b7 70 ae 97 b7 6a 9b 21 36 44 a2 b5 b4
       -1.133824e-05 -1.8081832e-05 2.4081332e-06 -3.383194e-07
000040 e3 73 26 b5 d5 1e be 35 b6 08 51 b6 ad 0d 40 37
       -6.2008456e-07 1.4165076e-06 -3.1148497e-06 1.1447276e-05
000050 f0 f1 90 36 a4 b4 66 b7 b3 fb 8d b5 6b a9 8d 36
       4.3196997e-06 -1.3751127e-05 -1.0578573e-06 4.2218503e-06
000060 fe c0 63 37 dd af a5 b6 a1 0c f3 b6 73 8a 4e 36
       1.3575189e-05 -4.9378564e-06 -7.2434345e-06 3.077698e-06
000070 f4 2c ad b5 c6 36 e8 37 6b 38 93 37 b9 9d 5c b5
       -1.2902588e-06 2.7682061e-05 1.7550037e-05 -8.2185903e-07

features.5.weight f4 [32]
000000 7b 05 80 3f e2 64 83 3f 20 a5 82 3f 76 7b 80 3f
       1.0001673 1.0265162 1.0206642 1.0037677
000010 ae 63 80 3f 49 40 81 3f ff cd 81 3f bb 56 80 3f
       1.003042 1.0097743 1.014099 1.0026468
000020 d0 65 82 3f 3b 5e 81 3f 8f a6 81 3f 97 1c 81 3f
       1.0187321 1.0106882 1.0128955 1.008685
000030 39 3a 7f 3f 35 75 81 3f 9e e1 81 3f 01 09 7e 3f
       0.99698216 1.0113894 1.0146978 0.9923249
000040 b0 78 7f 3f c0 c0 7d 3f cc 8f 80 3f ee 3b 82 3f
       0.9979353 0.9912224 1.0043883 1.0174539
000050 f1 79 7f 3f ab 93 7d 3f cb ba 81 3f a4 f1 80 3f
       0.9979544 0.9905345 1.013513 1.0073743
000060 34 3f 82 3f 6a fd 7f 3f ab 4f 7f 3f b0 a6 7e 3f
       1.0175538 0.99996054 0.9973094 0.99473095
000070 3f 51 81 3f a6 34 82 3f 7e 72 7e 3f 17 a6 81 3f
       1.0102919 1.0172317 0.9939345 1.0128812

features.5.bias f4 [32]
000000 d6 5e 8a bc c3 84 8c bc 04 96 45 bc 1c b8 1c bc
       -0.016890924 -0.01715315 -0.012059692 -0.0095653795
000010 44 46 de bb f8 18 8f bc 12 b4 37 bc 2b b7 d7 bb
       -0.0067832787 -0.01746796 -0.011212366 -0.0065831146
000020 b2 f6 8a bc 01 3d 27 bc 13 57 97 bc 25 09 e0 bc
       -0.016963337 -0.010207416 -0.018474137 -0.02734811
000030 28 0b 77 bc 35 fe 8c bb 56 99 4f bc 86 29 8d bc
       -0.015078343 -0.004302765 -0.0126708355 -0.017231714
000040 54 bc 6b bc 2b 6a 5f bc 7d 97 5a bc 1f 13 7b bc
       -0.014388163 -0.013636152 -0.013341782 -0.015324383
000050 3b b1 bf bc cc 9b 74 bc 18 b1 e1 3a 30 d4 71 bc
       -0.02339994 -0.014929723 0.0017218916 -0.014760062
000060 d7 70 9c bc 9b d9 36 bc e8 20 0e bd 60 8a 94 bc
       -0.019096775 -0.01116028 -0.03469935 -0.018132389
000070 88 4f c6 bc 54 9e 83 bc 43 3a 9d bc dc cb 79 bc
       -0.024207845 -0.016066708 -0.01919282 -0.015246358

features.5.running_mean f4 [32]
000000 bc 4a 9b bd 7e 2b 19 3d 7b f1 6a 3e 39 b0 1b bf
       -0.07582614 0.037394993 0.2294368 -0.6081577
000010 11 95 a7 be 08 a2 cf 3e 60 43 ce 3d 30 d5 72 be
       -0.32730916 0.40553308 0.100714445 -0.23714137
000020 5a 9d 28 3f f2 84 5e be de cd 1b 3f cd d2 af 3e
       0.658651 -0.21730402 0.60861003 0.34340516
000030 e2 4f 9b bd a8 e3 87 bd 5e 23 3a 3f f1 7a 01 3d
       -0.07583596 -0.06635219 0.72710216 0.031611387
000040 09 57 c6 bd ad cd 0e bf 83 7c ec 3e 9c 7d 90 3e
       -0.096845694 -0.55782586 0.46188745 0.28220832
000050 c7 7e bc 3e 89 ef eb be 53 c7 aa be 09 7a 18 3f
       0.36815473 -0.46081188 -0.33355197 0.5956121
000060 14 5d 2d 3f 6f be 00 bf 88 a0 bd 3d 64 6d 2c 3e
       0.6772015 -0.5029058 0.092591345 0.16838604
000070 0a 76 c6 3e 8d 6e 01 3e 8d 9b a9 3d 68 8e 12 3f
       0.38761932 0.12639828 0.08281622 0.57248545

features.5.running_var f4 [32]
000000 c6 87 bf 3c fd a0 12 3d d7 e4 a5 3d a9 ce ae 3d
       0.023380172 0.03579806 0.08100288 0.08535511
000010 d0 df 04 3d 5d 93 09 3e 27 14 15 3d ed c2 56 3d
       0.032440007 0.13435121 0.036396172 0.05243199
000020 94 77 33 3e 95 eb 90 3d 9b 94 e7 3d 30 47 0f 3d
       0.17526084 0.07076184 0.11307641 0.03498
000030 bc 96 89 3c fc 98 46 3c d3 62 3e 3e e5 b7 95 3c
       0.016795509 0.012121435 0.18592386 0.018276164
000040 cb c1 64 3d b2 da ae 3d e0 66 f7 3d cb 7a 76 3d
       0.055848878 0.085378066 0.12080169 0.0601757
000050 85 33 dd 3d 5c e6 72 3d 71 17 8b 3e 38 a9 dd 3d
       0.10800842 0.05930172 0.27166322 0.108232915
000060 f2 00 db 3d 8e bb 14 3e 55 3b 0f 3d 6c 69 4e 3d
       0.1069354 0.14524671 0.034968693 0.050393507
000070 d0 73 a1 3d b7 d5 f5 3c 5c 22 84 3c bc 48 50 3e
       0.078834176 0.030009134 0.016129665 0.20340246

classifier.2.weight f4 [128, 1792]
000000 00 98 2c bd 4e 34 e5 3b 00 db b4 bb 94 3d 0c bc
       -0.042137146 0.0069947606 -0.005519271 -0.008559603
000010 29 f4 e6 bc f8 e7 e6 3b 69 89 bb bc 39 6f 22 3b
       -0.028192597 0.007046696 -0.02289267 0.0024785532
000020 23 e6 6e bb 24 3a 8b bc 87 97 34 bb 8e bd 93 3b
       -0.003645309 -0.016995497 -0.0027556138 0.0045086807
000030 42 b9 53 bc ec 17 34 bc c0 95 d5 bc 76 67 b1 3a
       -0.012922587 -0.010992032 -0.026072383 0.0013534862
000040 b9 c3 81 bb 14 75 dc b9 ec 19 49 bc 16 9a b7 3a
       -0.0039600995 -0.000420489 -0.012274247 0.0014007713
000050 8c a2 49 bc fd 91 0d bd 90 a6 9f 3c 35 1d 73 3c
       -0.012306821 -0.034563053 0.019488603 0.0148385065
000060 d4 a5 9c bc 63 70 01 3c 62 97 4d 3c ad 26 ac 3b
       -0.019122042 0.00790033 0.0125482995 0.005253634
000070 aa d5 9d 3c 4f 34 79 3b 27 14 6d 3c 3b 3a 6b bc
       0.019266922 0.0038025563 0.014470137 -0.014357145
000080 29 09 93 bc 66 37 9b bc da 71 ed bc e1 df 96 bc
       -0.017948704 -0.018947314 -0.028984953 -0.0184173
000090 94 11 95 bc 94 72 7b 3b de 50 a4 bb 93 02 7f bc
       -0.018196858 0.0038367854 -0.005014523 -0.015564579
0000a0 af 49 d7 3b 03 75 0a bc f1 1d da bb e5 ca 92 bc
       0.006570063 -0.008450749 -0.0066564013 -0.017919013
0000b0 64 40 b1 bc eb a1 91 bc 4b d9 f8 ba 14 9e 2b bb
       -0.02163715 -0.017777404 -0.0018985657 -0.0026186751
0000c0 30 fd b3 3c 3c f7 a0 3b 01 5c 09 bd 0a 3a e2 bc
       0.021971315 0.004912285 -0.033535007 -0.027615566
0000d0 3b d6 38 bc 4b a7 a6 bc 6e d7 cf bc d2 82 85 3c
       -0.011281545 -0.020343443 -0.02537128 0.016297732
0000e0 18 7c 5b 3c 87 02 8c 3b f4 c4 e8 bc 38 49 cc 3a
       0.0133962855 0.004272762 -0.028414227 0.0015585786
0000f0 32 55 42 bc 96 1a ef 3b f6 15 07 3c 16 24 ae bc
       -0.011861132 0.0072968705 0.008244982 -0.021257441
000100 7f 04 28 bc d2 0f e2 bc f2 bf dd ba b5 2a 93 bc
       -0.010254978 -0.027595434 -0.0016918166 -0.0179647
000110 63 11 c2 3a b2 03 18 bc b4 7b 21 bc a3 8a cc 3c
       0.0014806207 -0.009278225 -0.009856153 0.02496845
000120 a5 d1 76 bc d8 37 42 bb 21 e6 b2 3c af db 8b bc
       -0.015064632 -0.0029635336 0.02183825 -0.017072527
000130 4c 25 d8 bc 9d 00 33 3c 42 f2 04 bd 23 d8 35 bb
       -0.026384972 0.010925439 -0.032457598 -0.0027747236
000140 de de 21 39 70 08 92 bc 30 68 e2 bb e6 68 ab bc
       0.00015437181 -0.017826289 -0.006909393 -0.020924043
000150 3e 87 7e 3c 85 3c a7 bc e2 22 da 3a 1b ec 2a bc
       0.015535174 -0.0204146 0.0016642476 -0.0104322685
000160 4e de 30 3c b3 b0 bf 3c 70 a9 d7 bb b3 5d c4 bc
       0.010795189 0.023399686 -0.006581478 -0.02397046
000170 6d f7 11 bc 29 b3 96 3c b6 d9 2a 3b f9 12 63 3a
       -0.008909089 0.018395977 0.0026069707 0.000866219
000180 0f 60 55 3c 2b dd f3 3b ad 1e a0 3b e8 8a 9b 3b
       0.01302339 0.0074421368 0.0048864693 0.0047467835
000190 f1 3e d5 3c ee c8 4b 3c 1a f0 9f bb 4b f2 b2 3b
       0.02603099 0.012438042 -0.0048809173 0.0054610125
0001a0 6b 8c 48 bc 75 5b 49 3a 9d 01 58 3c c6 12 74 bc
       -0.0122405095 0.00076811697 0.013183978 -0.014897054
0001b0 11 b4 9b bc de 9a 99 bc b3 0c a6 ba e9 3b 34 3c
       -0.01900676 -0.018750604 -0.001266858 0.011000612
0001c0 b8 2d 02 ba 9e cf cc 3c 2b c7 92 3c 47 a0 92 bb
       -0.0004965919 0.025001343 0.017917236 -0.004474673
0001d0 f2 ab 3a 3c f3 41 cd 3b ca 3a e8 3b bd 3f 01 3c
       0.011393534 0.0062639653 0.0070870863 0.007888732
0001e0 71 24 a3 bb 70 6d f5 ba 83 dc 41 bc d1 79 a9 3b
       -0.0049787094 -0.0018724632 -0.011832359 0.0051719924
0001f0 8f d9 eb bc 81 e1 d1 39 12 ba b3 bc 8a b3 6d bb
       -0.028790263 0.000400316 -0.021939311 -0.0036270344
000200 0f 82 b6 3b 9d 07 06 bb 59 b9 b6 bc 73 9e 7a 3b
       0.0055697034 -0.0020451315 -0.022305178 0.0038241416
000210 fc de d6 bb 04 b3 d7 3a d4 0f ec 3b 7c be 12 bd
       -0.0065573435 0.0016456549 0.0072040353 -0.03582619
000220 05 bb 88 3b 15 71 20 bd 9e b6 9e bc 69 33 25 bb
       0.004172685 -0.039170343 -0.019374188 -0.0025207645
000230 e3 0a f4 3b e4 42 68 b9 32 d7 28 bc 13 aa 4b 3b
       0.007447587 -0.00022150163 -0.010305213 0.0031076714
000240 8c ff 1a bc 4e da cf bc 6c 70 e0 bc 6d 62 8f bc
       -0.009460341 -0.02537265 -0.027397357 -0.017502988
000250 b7 cd 46 bc 14 f7 4a bb 2b b0 6a bc 6c 18 66 bc
       -0.012134007 -0.0030970024 -0.014324228 -0.014043909
000260 ad dc 1a 3c c7 eb 68 3c 33 0a 56 bc c0 dd 84 bc
       0.009452027 0.01421637 -0.013063955 -0.01621902
000270 ca 1e 23 bc 62 1f 69 bc 58 c7 d0 bc cd 7a 05 bd
       -0.009956071 -0.014228674 -0.02548568 -0.032587815
000280 47 91 59 bc 6d 77 d6 bc 48 73 8f 3c d2 2d 01 bd
       -0.013279266 -0.026179994 0.017511025 -0.03153784
000290 d7 f7 c7 3b dd e3 35 bc f8 c5 a0 3c 57 87 d1 bb
       0.006102543 -0.01110169 0.019625649 -0.0063943076
0002a0 6b b3 d6 3b fe 7e ba bc d8 4c 64 bc 44 4d 92 3c
       0.00655215 -0.022765633 -0.013934337 0.017859109
0002b0 ac c0 d6 3a 25 33 39 3c f5 79 bd bb 68 b9 54 bc
       0.0016384325 0.011303698 -0.0057823607 -0.012983657
0002c0 0a 25 eb bb d9 c1 2d bc a6 50 dc ba d4 c9 c5 3a
       -0.0071760463 -0.010605299 -0.0016808703 0.0015090057
0002d0 fc f1 ca 3c 97 b0 d3 3c 9b 07 96 bb b5 41 3c bc
       0.02477359 0.02584104 -0.0045785434 -0.011490275
0002e0 41 30 da 3c 4f d2 aa 3a d5 09 df 3c 82 9a b1 3c
       0.026634337 0.0013032648 0.027226368 0.02168012
0002f0 e1 65 9f 3c 6e 6f c1 3c f1 39 35 bc 9c ac 7d 3c
       0.01945776 0.023612704 -0.011061178 0.015483048
000300 29 57 8d ba c4 6d 7a 3a af 9c c3 3c 71 f6 82 3c
       -0.0010783422 0.00095530995 0.023878423 0.015986653
000310 96 fc 19 bc 91 42 01 3c 2d e9 47 3b 14 1f 7d bc
       -0.0093986 0.007889406 0.0030503974 -0.015449304
000320 44 ee 0b 3c 99 2d e4 3c ff 75 d4 3c 33 2c aa 3c
       0.008540694 0.027853774 0.025935171 0.020773029
000330 12 1c b1 bb 76 16 48 bb 31 c6 22 bb 48 59 ca 3c
       -0.0054049576 -0.0030530966 -0.002483737 0.024700776
000340 2f ea ad 3c 29 4b 92 bb df d5 4a 3c df 3b a8 3c
       0.021229832 -0.004464526 0.012380092 0.020536361
000350 d2 f0 35 bc 4e 8f 3d 3c 04 60 e0 38 fd 30 19 bc
       -0.011104779 0.011569811 0.00010699037 -0.009350059
000360 85 69 a0 bc da 9d 5f ba 82 c3 e0 3c 8c 71 e4 bb
       -0.019581566 -0.00085302966 0.027436975 -0.0069715437
000370 87 95 0c 3c 52 0c 9f ba fc df 94 bc d9 32 96 bb
       0.008580572 -0.0012134409 -0.01817321 -0.004583698
000380 aa 4c d6 bb 74 d9 90 bc 4d 40 9e 3c 1e 06 67 bc
       -0.006539901 -0.017681815 0.01931777 -0.01410058
000390 cc 00 5a bc 63 c5 dd 38 5e b4 e1 ba 02 ae 80 3b
       -0.013305854 0.00010574867 -0.0017219891 0.0039269933
0003a0 ca 6e 84 bc e0 4e 0a 3c 20 86 3a bc 52 17 ad 3c
       -0.01616611 0.008441657 -0.011384517 0.021129284
0003b0 c1 b7 83 bc 98 2e 63 bb dc 71 a9 ba 34 59 d0 3b
       -0.016078832 -0.0034665223 -0.001292761 0.00635829
0003c0 e1 f3 ab 3c a0 af 15 3c 70 94 a4 3b 47 24 e1 3b
       0.020990314 0.009136111 0.005022578 0.0068707797
0003d0 d1 40 e5 3c da 96 13 3c 02 ef cf 3c cb 9b 19 3b
       0.027985008 0.009008134 0.025382522 0.0023438807
0003e0 6e f7 9b 3c f8 4c c1 3c d2 f1 64 3c 82 e6 2b 3d
       0.019038882 0.023596272 0.01397367 0.041967876
0003f0 83 6a 2f 3b dd 0e 74 3c 5b cc 26 3c 37 c1 fd 3b
       0.0026766367 0.014896122 0.010180558 0.0077439803

classifier.2.bias f4 [128]
000000 74 91 ae 3c 1e 3f ac 3c 73 6e 57 3c 5e ee 24 bc
       0.021309592 0.02102619 0.013148892 -0.010066597
000010 6c cb 8b bb 98 9a 85 3a a1 ec fb 3b 00 21 ba bc
       -0.004266193 0.0010193167 0.0076881205 -0.022720814
000020 8b 09 0b bc 8f b5 25 3c e7 bf d9 bc e7 13 c0 bc
       -0.008486162 0.010114088 -0.026580764 -0.02344699
000030 fd 44 b6 3c cd 3d 6c bc f2 1b 23 bc b4 f0 3a 3c
       0.022249693 -0.014419031 -0.009955393 0.011409927
000040 bc 8d 58 3c d6 23 aa bc c9 07 5a bc 55 cb b8 bb
       0.013217386 -0.020769041 -0.01330752 -0.0056394734
000050 53 cf e5 bc 4d c2 14 bc f2 b9 b8 bc fe ae d5 bc
       -0.028052961 -0.009079528 -0.022549603 -0.02608442
000060 69 4b 30 bc 90 60 a4 bc 32 d3 0d bc 76 f0 29 3c
       -0.010760167 -0.020065576 -0.00865631 0.010372272
000070 3b 57 74 3b 28 bb 00 bc 49 ce 92 bc e9 9e a9 bc
       0.0037283439 -0.0078571215 -0.01792063 -0.020705657
000080 ec da 0e bb 8f 31 18 3b d2 23 92 bc f7 17 67 3c
       -0.0021797968 0.0023222899 -0.017839346 0.014104835
000090 f2 de c7 bb c3 d6 15 bc 36 91 b3 bc d0 5e a1 3b
       -0.006099575 -0.009145441 -0.021919828 0.0049246326
0000a0 42 4c 92 3c 47 79 85 3c 1a 5a 9b bc 86 9a 3c bc
       0.017858628 0.016293181 -0.018963862 -0.011511451
0000b0 04 65 e7 bb 10 01 81 3b 52 fe 8e bc b7 bb 90 bc
       -0.0070616025 0.0039368942 -0.017455254 -0.017667634
0000c0 3f ba 9b bc c8 4e 10 3d 91 df dd 3b ec af 09 3c
       -0.019009707 0.03523138 0.006771036 0.008403759
0000d0 f2 62 ee bb 08 bc 39 bc 73 d8 4a bc 40 c1 5f bc
       -0.007274979 -0.011336334 -0.012380707 -0.013656914
0000e0 9f 51 c0 3a 1e 69 70 bc 9e 18 83 3c 64 47 9d bc
       0.0014672762 -0.014673499 0.01600295 -0.01919908
0000f0 d5 9d 7a 3c 39 d8 b8 b9 9d 55 86 bc 05 bc aa 3b
       0.015296419 -0.00035256313 -0.016398245 0.005210402
000100 27 28 7c bb 07 31 10 3c ea 3c 89 bb cb 32 9d 3b
       -0.003847608 0.0088007515 -0.0041881697 0.0047973148
000110 68 7d cb bc 78 42 94 bc 85 51 95 3c 58 a9 77 3b
       -0.024840072 -0.018098101 0.018227348 0.0037790146
000120 35 11 3f bc f3 6d 94 bb 9f c0 56 bb e5 15 2e bc
       -0.011661817 -0.0045297085 -0.003276862 -0.010625337
000130 10 f6 78 3c b8 6e 78 bc 32 5d c2 bc db 55 b4 bc
       0.015195385 -0.015163116 -0.02372608 -0.022013595
000140 03 e5 48 3c 28 4a 56 bb 97 01 84 3c aa 55 fc 3b
       0.012261632 -0.003269801 0.01611404 0.0077006416
000150 00 ab 1f 3b 86 b6 9c bb 20 69 a7 bc 5d 13 e3 3b
       0.0024363399 -0.0047825007 -0.02043587 0.0069297985
000160 2a fe d3 bb 8a 59 da bb 8e 08 3d 3b 12 b0 49 bc
       -0.0064695077 -0.006663506 0.002884421 -0.012310045
000170 28 30 49 3c e0 63 46 3b cc ed 7a 3c 4d c1 8a 3b
       0.012279548 0.0030271932 0.015315484 0.004234469
000180 d7 d4 db 3c 4f c5 c3 3c b9 eb f9 3c fe fe b5 3b
       0.026834888 0.023897795 0.03050791 0.005554079
000190 e2 5b 3f ba 56 ef 58 bb 92 5f ab 3b 17 bc ac ba
       -0.00072997634 -0.003310164 0.0052298987 -0.0013178614
0001a0 c1 cf dc bc 40 ee 46 3c 17 f9 f1 bb 89 1c 34 3b
       -0.026954534 0.012141764 -0.00738443 0.0027482829
0001b0 85 9e 9c 3b 1e c8 f9 3b da b4 e2 3b f3 20 48 3b
       0.004779639 0.007622733 0.006918532 0.0030537217
0001c0 72 f2 c1 bc 94 da bb bb 98 be 9b bc 90 d5 0b b9
       -0.023675177 -0.0057328437 -0.01901178 -0.00013335631
0001d0 b1 c6 49 bb b7 1f 2e 3c 80 0c 69 bc 4a 52 1a bb
       -0.0030788595 0.010627679 -0.014224172 -0.0023547583
0001e0 cc 56 d4 3b 79 40 b9 3b 8c 12 59 3c 00 bf 77 3c
       0.0064800736 0.0056534377 0.013249051 0.015121222
0001f0 8b b4 d1 3b 8b 45 9e 3c 90 1a b8 bc ce 95 62 bc
       0.006399696 0.01932027 -0.022473603 -0.0138296615

classifier.4.weight f4 [3, 128]
000000 33 d9 a0 bd fe f6 b7 3d 40 1a a3 bd b4 b2 8f 3d
       -0.078539275 0.08982657 -0.07963991 0.07016507
000010 b2 14 f1 3c 2f 8a 3d 3d be 36 8f bd 4c 04 9f bd
       0.029428814 0.04627436 -0.06992863 -0.077644914
000020 5a 58 8a 3d 85 ae f7 3b 72 5c 72 bc fa e2 a4 3a
       0.06755133 0.007558646 -0.0147925485 0.0012579851
000030 fe 05 4e bd 09 b9 21 3d 48 0f 66 bd c6 cf d5 bc
       -0.050298683 0.039483104 -0.056166917 -0.02610005
000040 06 2c d3 3c b8 ff 80 3d 21 95 ca 3c c7 ee 70 3d
       0.025777828 0.062987745 0.024729313 0.058821466
000050 4e eb 85 3a d5 11 8a bd cb 04 95 3d 8b d6 2a bc
       0.0010217221 -0.067416824 0.07276305 -0.010427128
000060 f5 0e 21 3d 40 5a f7 bb 84 6a 8a bd 6a f5 dd 3c
       0.039320905 -0.0075486004 -0.067585975 0.027094562
000070 8b 0b 59 bd c3 e7 7e 3d 25 8b a3 bd 0c 09 26 3d
       -0.052989524 0.062232744 -0.07985524 0.04053597
000080 14 e8 a3 bd b8 ff 0c 3d 21 c8 83 bc 80 a8 be bd
       -0.0800325 0.03442356 -0.01608664 -0.093094826
000090 b9 45 ae bc 0a 34 17 3d 0b 4d a4 bd 32 c0 b3 bd
       -0.02127348 0.036914863 -0.08022507 -0.08776893
0000a0 6e 78 f1 3d ca 2b a2 3d 34 f6 0e 3c 7c 00 ad 3c
       0.11790548 0.07918508 0.008725692 0.021118395
0000b0 e7 b0 b7 bd 09 8c c0 3c ca 90 ca bd 07 2a 86 3d
       -0.08969288 0.023504274 -0.098908976 0.06550985
0000c0 63 f5 37 bc 20 e8 40 bd f5 cc d8 bc 2d 64 40 3d
       -0.011227938 -0.04709637 -0.026464919 0.046970535
0000d0 bc fe d8 3c ac b4 0a 3d e0 ed f8 3b 0c 73 5d bd
       0.026488654 0.03386371 0.0075967163 -0.054064795
0000e0 60 c1 6e 3d aa 38 94 3c a8 16 31 3b e5 13 5c 3d
       0.058289886 0.018093426 0.002702156 0.05372991
0000f0 64 bc 9d bd 0c ce 87 3c 1b b7 ac 3d 43 44 f8 3c
       -0.07701948 0.016577743 0.08433362 0.030305987
000100 8e e5 cd bd ea ca 8e bd 7e 4d 05 3c 31 c0 b0 3d
       -0.1005355 -0.069722965 0.008136151 0.086304076
000110 25 52 43 3d 74 fd 2b 3d 1f 3e 91 3c 6b 77 62 3d
       0.04768576 0.04198976 0.017729817 0.055289667
000120 27 81 02 3c bf 6b 0a bc 56 a6 dc 3c 54 94 44 3d
       0.007965363 -0.00844854 0.026934784 0.04799302
000130 e4 0b c5 3c 2a 7b 06 bd 4d 76 65 bd e1 9a 52 bd
       0.024053521 -0.032832302 -0.056021024 -0.051417235
000140 89 05 a3 bd 08 59 60 bd ef b6 3a bd c1 fd db bd
       -0.0796004 -0.054772407 -0.045584615 -0.10741759
000150 35 b8 e0 bc 46 62 96 3b d9 c6 03 3d 99 5f d9 3c
       -0.027431587 0.004589352 0.032172058 0.026534842
000160 f8 4b d7 bc 51 f8 b6 3d 91 72 9c bc 4e e8 a2 3d
       -0.026281342 0.08934081 -0.019097598 0.07954465
000170 59 5a 41 3d 97 a9 8c bd e2 8e 24 bb e9 07 8b bd
       0.047205303 -0.06868284 -0.002510958 -0.06788618
000180 63 5c cd bd 8b 15 28 bd 89 ed e4 bd 31 87 90 3d
       -0.10027387 -0.04103617 -0.11178119 0.07057036
000190 b1 63 21 bd 6d 01 96 3d 99 71 d5 bd 74 ca c0 bd
       -0.039401714 0.07324491 -0.10422058 -0.09413615
0001a0 c0 81 28 3d 3d ae af bc fa 45 e6 bc da b2 80 bd
       0.041139364 -0.021445388 -0.02810954 -0.06284113
0001b0 ad 16 a7 3d 1e 9d 97 3d a1 f0 22 bd dc 3a 57 bd
       0.08158622 0.074030146 -0.039780263 -0.052546367
0001c0 5a a9 52 3d 34 3c 05 bd ca 33 28 3c 7d a4 42 bd
       0.051431037 -0.032528117 0.010266254 -0.04752015
0001d0 01 3f 54 bd 20 6c 38 bd c6 7d 42 bb 15 a8 85 3d
       -0.051817898 -0.04502499 -0.0029677018 0.065262
0001e0 a8 8a a2 ba 30 ca 20 3d ec dd 0a bc f7 43 28 bd
       -0.0012400942 0.03925532 -0.008475762 -0.04108044
0001f0 5b 82 e7 3c 88 f5 28 bd 7b fa 83 3d 71 8d 3c bd
       0.0282604 -0.04124978 0.0644426 -0.046033327
000200 b2 2a b6 bd 1c f0 8e bc 3d a0 55 3c a4 3f 49 bd
       -0.08894862 -0.017448477 0.013038692 -0.049132958
000210 11 5d 9d bd 33 15 a3 bd de 75 42 bc e4 88 09 bd
       -0.07683767 -0.07963028 -0.011868922 -0.033577815
000220 e3 9c a8 bd 5a 11 a0 bc 2a 6e ce bc c1 66 3f 3d
       -0.08233049 -0.019539524 -0.025199015 0.046728853
000230 4e d5 fd bc bf f0 40 3d 45 33 89 3d 78 bb 6b bd
       -0.0309855 0.047104593 0.06699232 -0.05755183
000240 96 c2 79 bd 2c c0 6e 3c e9 60 bb bc d5 a5 a0 bd
       -0.060976587 0.0145721845 -0.022873359 -0.0784413
000250 61 cd 3e 3b e6 74 73 3d 56 aa d8 bc 6d 77 bb 3d
       0.0029114115 0.059437655 -0.02644841 0.09153638
000260 00 58 a3 bc 27 fb 0b bd 32 24 94 3d ea 9e 4f 3c
       -0.019939423 -0.034175064 0.07233466 0.012672165
000270 c4 ac 61 bc 1f b5 62 3d 94 a4 8e bd bc 38 18 3d
       -0.013774101 0.05534851 -0.069649845 0.03716348
000280 68 d6 9d bd a7 e5 00 bc 2a 81 8f 3d 62 2a d3 3d
       -0.0770691 -0.007867253 0.07007058 0.10310818
000290 f8 5b c3 3c 82 7c 89 3c 32 35 35 3d e0 4b 95 bd
       0.023847565 0.016783003 0.044240184 -0.07289863
0002a0 de 67 c1 3b 61 56 4f bd 0e 7a cb 3b 0b af 8e bd
       0.0059022745 -0.050619487 0.0062096184 -0.069669805
0002b0 e7 d8 34 3d c0 bb 19 bd 3d 91 8b bd 73 5d f0 3c
       0.044152167 -0.037532568 -0.068148114 0.029341435
0002c0 50 5d f7 3c 64 d0 00 3c 78 51 a7 bd a2 ba 24 3d
       0.030195862 0.007862184 -0.08169836 0.04021705
0002d0 47 12 c2 bc 1d 29 1b 3d 20 b1 23 3d 3b e1 90 3c
       -0.023690356 0.037881006 0.03996384 0.017685523
0002e0 da f3 ca bd 2a cd c6 bc 52 ba 0a 3d b5 1f 8a bd
       -0.09909792 -0.024267752 0.033869095 -0.06744329
0002f0 a7 6f 0c 3d 49 c8 39 bd 28 58 78 bd dd cb 06 3d
       0.034286167 -0.045357022 -0.060630947 0.032909263
000300 57 ca 93 3d ec 81 76 bc d5 de 2d 3d 45 fd 8d 3d
       0.07216328 -0.015045624 0.042448837 0.06933073
000310 70 3f 9e bd 20 c3 3c 3d 8b 69 91 3d 2b 49 25 3d
       -0.077269435 0.046084523 0.07100209 0.04035298
000320 5f 22 59 3d 60 2b c1 bd 29 45 5d 3d 27 81 83 3d
       0.053011294 -0.09432101 0.054021034 0.06421118
000330 43 40 9c bd 96 aa 9d bd 19 6a b1 3d 75 24 eb 3c
       -0.076294445 -0.07698552 0.08662815 0.028703908
000340 6c 7f 07 3d ba 84 be bc 92 ff b8 3a 26 9c bc bd
       0.033080503 -0.023256648 0.0014114252 -0.092094705
000350 2a 1d 29 3d a4 a5 9c 3d 1c 3b 98 bd 3b 16 d9 bd
       0.04128758 0.07648781 -0.07433149 -0.10599943
000360 93 53 69 3d 4d b5 2c 3c bf a8 d2 3c f9 2d 17 3d
       0.05696447 0.010541272 0.02571523 0.036909077
000370 98 b2 95 bd 7b 48 6c bd d7 d8 88 3d eb aa 89 3d
       -0.07309455 -0.05768631 0.06681984 0.06722053
000380 a3 58 a7 bd 3b f0 98 bd bf 04 48 bb 12 cc 08 3c
       -0.08171203 -0.07467695 -0.0030520407 0.008349435
000390 ec f3 51 bb c0 de 39 bd 16 ae cc 3d d1 48 51 3d
       -0.0032036258 -0.045378447 0.09994142 0.051094834
0003a0 c2 d4 97 3c 33 fe e4 3d 87 f0 f9 3c e2 43 d4 bb
       0.018534068 0.11181297 0.0305102 -0.006477819
0003b0 c8 94 d4 3c 60 92 47 3d 64 a8 11 3d 27 7b eb 3c
       0.02594985 0.04872358 0.03556098 0.028745247
0003c0 5b ef 31 3d c4 35 e6 bc 11 bb 98 3d 9e 6d d9 bc
       0.043441158 -0.02810181 0.07457555 -0.026541527
0003d0 d7 04 45 3c 63 85 de 3c 82 e5 92 bd cd 99 6e bd
       0.01202508 0.027163213 -0.071726814 -0.058252145
0003e0 f0 f5 da bc 32 e0 69 3c 94 ac 1f bd 9e 95 57 bd
       -0.0267286 0.014274644 -0.038982943 -0.05263292
0003f0 40 ac 1f 3d 36 cc 93 3d b3 96 07 bd ef 23 46 bd
       0.03898263 0.072166845 -0.033102702 -0.048374113

classifier.4.bias f4 [3]
000000 e4 ed 3d bd 11 7f 25 3d 6b 46 f0 3c
       -0.04636945 0.040404383 0.029330453
