Resources/best_hsi_model.pth (torch, 984469 bytes, 16 tensors)

features.0.weight f4 [16, 1, 3, 3, 3]
0	0xbde98389	-0.114020415
1	0xbc9b4b50	-0.01895681
2	0xbe1f0f47	-0.15533172
3	0xbe37b9c0	-0.17941952
4	0xbe07b50f	-0.13252662
5	0x3e239bc5	0.1597739
6	0xbc41c3d5	-0.011826475
7	0x3e092f42	0.13396934
8	0x3d4ed7a2	0.050498612
9	0xbd849574	-0.064738184
10	0x3e185e4f	0.14879726
11	0xbe216c1b	-0.15763895
12	0xbe07a2e4	-0.13245732
13	0x3cda7e50	0.026671559
14	0x3e2424d2	0.16029671
15	0xbe474a17	-0.19461857
16	0xbe1881a3	-0.14893202
17	0x3bcf4600	0.0063254833
18	0x3e4a09bb	0.19730274
19	0x3e6d92ca	0.23200527
20	0xbd97a3f5	-0.07404319
21	0x3d67a7ee	0.056556635
22	0xbdee2c12	-0.116294995
23	0x3bd907b7	0.006623234
24	0xbd5b6feb	-0.05357353
25	0xbdb68be8	-0.08913404
26	0xbde5770d	-0.11204348
27	0xbd1bea00	-0.038064957
28	0xbc9e36fe	-0.019313332
29	0xbe3c326c	-0.1837861
30	0xbd649a6a	-0.055811323
31	0xbdcd82d5	-0.1003472
32	0x3dcc0bb5	0.099631704
33	0xbd7d72e4	-0.061877146
34	0x3d90f7ac	0.0707849
35	0x3e23cf87	0.15997134
36	0xbe46a799	-0.19399871
37	0x3da21f39	0.079161115
38	0xbdfef6e1	-0.12449432
39	0x3e0af3a5	0.13569506
40	0x3e1df568	0.15425646
41	0x3e02462f	0.12722085
42	0xbe40ece3	-0.18840365
43	0x3d09b61f	0.03362095
44	0x3deca460	0.115547895
45	0xbe22d404	-0.1590119
46	0x3d966743	0.07343914
47	0xbd25bb0a	-0.040461577
48	0x3d142a62	0.036173232
49	0x3c1c0671	0.00952302
50	0x3dd3ce71	0.1034211
51	0x3e3323ea	0.17494169
52	0x3e23b2f7	0.15986238
53	0x3dbc87a8	0.09205562
54	0xbd9680a2	-0.073487535
55	0x3e19409f	0.14966057
56	0xba90080e	-0.0010988729
57	0x3e437e47	0.1909114
58	0x3d97d7d7	0.07414215
59	0x3e23c103	0.15991597
60	0x3e4cacab	0.19987743
61	0x3b43f464	0.0029900307
62	0x3e351ebc	0.17687505
63	0x3e2b8811	0.16751124
64	0xbd36a23b	-0.04458831
65	0xbd430f1c	-0.04762183
66	0xbc25f687	-0.0101295775
67	0xbdf4252f	-0.11921155
68	0xbe04ac40	-0.12956333
69	0x3d54a4f8	0.05191514
70	0xbe10671d	-0.14101835
71	0x3e0ef869	0.13961948
72	0xbdb43943	-0.08799984
73	0x3debfaa6	0.11522417
74	0x3e171918	0.14755666
75	0x3e1da488	0.15394795
76	0x3decf343	0.11569836
77	0xbd909caa	-0.07061131
78	0xbcbbb695	-0.02291421
79	0xbe51345f	-0.20430134
80	0x3c499cf8	0.012305491
81	0xbe61856d	-0.22023554
82	0x3de52442	0.11188556
83	0xbd0513f1	-0.03248972
84	0x3d003f78	0.03131053
85	0x3e012632	0.12612227
86	0x3d7958f4	0.060875848
87	0x3c7dec3f	0.01549822
88	0xbbf32be8	-0.0074210055
89	0xbe65996b	-0.22421806
90	0x3de09dc7	0.10967594
91	0xbe17ad06	-0.14812097
92	0xbac9cd1a	-0.0015396208
93	0xbd87e17f	-0.06634807
94	0x3dec52cc	0.1153923
95	0x3da156b8	0.078778684
96	0xbc8fe75a	-0.017566372
97	0xbe5056b3	-0.20345573
98	0xbde959e9	-0.11394102
99	0x3da5b927	0.08091956
100	0x3e4197d2	0.18905571
101	0xbb9e4184	-0.0048295874
102	0x3dfd80e6	0.12378101
103	0xbe3037a3	-0.17208724
104	0x3e08adf8	0.13347614
105	0x3e00bb62	0.12571481
106	0x3c68af92	0.0142020155
107	0xbce09666	-0.027415466
108	0x3e394444	0.18092448
109	0x3e37b159	0.17938747
110	0xbe069f59	-0.13146724
111	0x3d979d2e	0.074030265
112	0xbdbf011d	-0.09326384
113	0x3d9a167b	0.07523819
114	0x3dfa6660	0.12226558
115	0xbca82e00	-0.020529747
116	0xbd8609cb	-0.065448366
117	0x3dd78c39	0.10524792
118	0x3c261301	0.010136367
119	0xbe56f962	-0.2099357
120	0xbc84fadc	-0.0162329
121	0x3dcb7126	0.09933691
122	0xbccc492f	-0.02493724
123	0x3d03cf3e	0.032180063
124	0xbe462488	-0.19349873
125	0x3e035b8d	0.12827893
126	0xbd647ea0	-0.05578482
127	0xbcd79a35	-0.026318649
128	0xbd1e2c4c	-0.038616464
129	0xbdac9e79	-0.08428664
130	0x3b7c25e1	0.0038474726
131	0xbc7b258c	-0.015328776
132	0xbe11822d	-0.14209814
133	0x3d2a4d01	0.041577343
134	0x3e27f5f1	0.16402413
135	0xbe214645	-0.15749462
136	0x3dfd647a	0.1237268
137	0x3cb3b6d8	0.021937773
138	0xbd7d7870	-0.061882436
139	0xbdfcc03f	-0.123413555
140	0x3e0283fc	0.1274566
141	0x3e1a5d94	0.1507476
142	0xbd88b0d1	-0.0667435
143	0xbe314641	-0.17311956
144	0xbe0ee6ad	-0.13955183
145	0xbdbf3235	-0.09335748
146	0xbe30cee5	-0.17266424
147	0xbe071253	-0.13190584
148	0x3e1ef27c	0.15522188
149	0x3de7defe	0.11321829
150	0x3d845f03	0.064634345
151	0xbce76d91	-0.028250488
152	0x3d811bce	0.063041314
153	0xbe054340	-0.13013935
154	0x3e21abac	0.15788144
155	0x3e4c63db	0.19959967
156	0x3d6062c1	0.05478168
157	0x3db650b8	0.08902115
158	0x3e4c64b5	0.19960292
159	0x3d6b31f3	0.057420682
160	0xbe0297b2	-0.1275318
161	0xbe2b64fb	-0.1673774
162	0xbd093071	-0.033493463
163	0xbe39f02e	-0.18158028
164	0xbd8f96b8	-0.07011169
165	0x3d4b7aaa	0.04967753
166	0x3d3790fe	0.04481601
167	0xbe17bcda	-0.14818135
168	0xbdd83ff5	-0.10559074
169	0x3e0b5304	0.13605887
170	0x3dd6326d	0.10458837
171	0xbca72d4f	-0.020407347
172	0x3df3c021	0.1190188
173	0x3e099507	0.13435756
174	0x3dea565a	0.114422515
175	0xbe38d46a	-0.1804978
176	0xbe267120	-0.16254091
177	0xbdffeeea	-0.12496741
178	0xbdf1db71	-0.11809433
179	0xbd8cf1b9	-0.068820424
180	0xbdaae5a7	-0.08344584
181	0x3e4434cb	0.19160764
182	0x3d0d9984	0.034570232
183	0x3e22dc24	0.1590429
184	0x3e3df5a3	0.18550734
185	0x3dd7a82e	0.105301246
186	0xbddc0bfc	-0.10744473
187	0xbe176078	-0.14782894
188	0x3e15edda	0.14641514
189	0xbd6b0c3b	-0.05738471
190	0xbd6fc9f3	-0.058542203
191	0xbe2a898f	-0.16654037
192	0xbdbfea20	-0.09370828
193	0xbe3fe33a	-0.18739024
194	0x3caad1e4	0.020852037
195	0x3e35b9e4	0.17746693
196	0x3d779f6e	0.06045478
197	0xbcb93771	-0.022609444
198	0x3e015797	0.12631069
199	0x3e309e89	0.17247976
200	0xbe358a54	-0.17728549
201	0xbe0f04ab	-0.13966624
202	0xbdb387da	-0.08766146
203	0x3dced3e5	0.100990094
204	0xbd2077a3	-0.039176594
205	0x3df5b682	0.11997701
206	0x3c4b0307	0.0123908585
207	0xbe37185e	-0.17880389
208	0xbde4f89f	-0.11180233
209	0x3e1efd40	0.15526295
210	0xbdfb6951	-0.12275947
211	0x3de83203	0.11337664
212	0x3e21ea5e	0.1581206
213	0xbe1be93c	-0.1522569
214	0xbc3a6dce	-0.011378719
215	0x3e006913	0.12540083
216	0x3b2ac225	0.002605566
217	0xbd364afc	-0.044505104
218	0x3d901560	0.07035327
219	0xbd7a0612	-0.061040945
220	0x3d8a2aad	0.06746421
221	0x3e23e303	0.16004567
222	0x3da9d316	0.082922146
223	0xbdb26d92	-0.08712305
224	0x3e37fe9e	0.17968222
225	0xbda2f047	-0.079559855
226	0x3e31f0be	0.17376992
227	0x3d608d72	0.054822393
228	0x3e418fd7	0.18902527
229	0x3ca09a61	0.019604864
230	0xbd0a75b6	-0.033803664
231	0x3e227fed	0.15869112
232	0xbdd03bf2	-0.10167684
233	0xbde06110	-0.10956013
234	0xbe2e5c78	-0.17027462
235	0xbc614726	-0.013749873
236	0xbe30a1bb	-0.17249195
237	0xbdf7acc4	-0.12093499
238	0xbd52803e	-0.051391833
239	0x3d7799ed	0.06044953
240	0x3db57c19	0.088615604
241	0x3d2d449e	0.042301767
242	0xbd4cf93d	-0.05004238
243	0x3d05b894	0.03264673
244	0x3e17e027	0.14831601
245	0x3e28e2a3	0.16492705
246	0x3d295c0c	0.04134755
247	0xbd2d421a	-0.042299367
248	0x3dcc6a73	0.09981241
249	0x3d42fc9e	0.047604196
250	0xbe18e6ff	-0.14931868
251	0xbd07c493	-0.033146452
252	0xbe312449	-0.17298998
253	0x3c2b5c98	0.010459088
254	0xbc4afa81	-0.012388826
255	0xbcb42e85	-0.021994838

features.0.bias f4 [16]
0	0x3708e9be	8.160654e-06
1	0xb72e2c8f	-1.0381583e-05
2	0xb62ef334	-2.6069583e-06
3	0x374fd833	1.2388499e-05
4	0xb64fcba1	-3.0963931e-06
5	0x3b6c3afd	0.0036045902
6	0x3c75c97b	0.01500165
7	0x3c0027ad	0.007821959
8	0x3a3c0219	0.00071719434
9	0x3b0fa0a0	0.0021915808
10	0x38eb0f5f	0.00011208536
11	0xbcb41277	-0.021981461
12	0x38035d65	3.1319814e-05
13	0xbaeb7d0e	-0.0017966346
14	0xb82ab061	-4.0695424e-05
15	0x3c686cca	0.014186094

features.1.weight f4 [16]
0	0x3f7f408c	0.99707866
1	0x3f7fa493	0.99860495
2	0x3f7dddda	0.99166644
3	0x3f813b80	1.0096283
4	0x3f810195	1.0078608
5	0x3f8095cb	1.0045713
6	0x3f818932	1.0119994
7	0x3f803176	1.0015094
8	0x3f860854	1.0471292
9	0x3f7e877b	0.99425477
10	0x3f7ca137	0.98683494
11	0x3f76d296	0.9641508
12	0x3f7b42fd	0.9814909
13	0x3f85adb0	1.044363
14	0x3f7b03c9	0.9805265
15	0x3f7a67be	0.9781455

features.1.bias f4 [16]
0	0x3bbfbbed	0.00585126
1	0xbc9934d3	-0.018701946
2	0xbcf69e3b	-0.030104747
3	0xbd380808	-0.044929534
4	0xbc9a3d6d	-0.018828118
5	0xba1dcc74	-0.00060195406
6	0x3b1b7cff	0.0023725627
7	0xbb97fb99	-0.004638147
8	0xbd312260	-0.043245673
9	0xbc41fec0	-0.011840522
10	0xbd045615	-0.032308657
11	0xbd3668f5	-0.04453369
12	0xbca5cab9	-0.020238267
13	0xbc89fc7d	-0.016844029
14	0xbc9f46c0	-0.019442916
15	0xbce5fde6	-0.02807517

features.1.running_mean f4 [16]
0	0xba948a00	-0.0011332631
1	0xba3998b1	-0.0007079943
2	0x3a862191	0.0010233392
3	0xbaaa86e8	-0.0013010176
4	0xb6ee562f	-7.102986e-06
5	0x3b05b23d	0.0020400428
6	0x3c6fd0e6	0.014637208
7	0x3c07559b	0.008260156
8	0x3a13678b	0.0005623034
9	0x3b06f2a7	0.002059141
10	0xb9a280ed	-0.00030995105
11	0xbca66fa4	-0.020316906
12	0xba939c1d	-0.0011261735
13	0x3a2b192c	0.0006526883
14	0xb98494fc	-0.00025288004
15	0x3c64a1b4	0.013954569

features.1.running_var f4 [16]
0	0x3e68d1a5	0.22736223
1	0x3e7664bd	0.24061866
2	0x3ed66238	0.4187181
3	0x3d205f8f	0.03915363
4	0x3d21208b	0.039337676
5	0x3d33f7f8	0.043937653
6	0x3d5973b7	0.05308887
7	0x3daea28e	0.085270986
8	0x3dbb3ae3	0.09142091
9	0x3cb3e0dd	0.02195781
10	0x3d343949	0.043999944
11	0x3f083187	0.5320057
12	0x3f4d4c68	0.8019471
13	0x3d6d1bce	0.057887845
14	0x3dc78ddd	0.09743855
15	0x3e6d0b9e	0.23148963

features.4.weight f4 [32, 16, 3, 3, 3]
0	0xbbe71935	-0.0070525655
1	0xbc4d872e	-0.012544436
2	0xbc346899	-0.011011266
3	0x3c55f7dd	0.0130595835
4	0xbb7281c6	-0.003700362
5	0x3bf4a028	0.007465381
6	0xba4df2a0	-0.00078562833
7	0x3c9a8828	0.018863752
8	0x3d2eabb9	0.042644236
9	0xbd26be53	-0.04070885
10	0xbd6c538c	-0.057696864
11	0xbcfd8597	-0.03094749
12	0xbcf7d3b8	-0.030252323
13	0x3c34d732	0.011037635
14	0xbd3f4db9	-0.04670498
15	0xbc2ac3e0	-0.010422677
16	0xbcb11016	-0.021614116
17	0xbd0435a1	-0.032277707
18	0xbb5b12ce	-0.0033427957
19	0xbcec858c	-0.028872274
20	0xbd03e939	-0.03220484
21	0xbd201b8f	-0.039088782
22	0xbbbcf2e0	-0.0057662576
23	0x3c37e3f9	0.0112237865
24	0x3ce08611	0.027407678
25	0xbc0da24d	-0.008644653
26	0x3b148fbe	0.0022668685
27	0x3c9c2f67	0.019065572
28	0xbcdeb66f	-0.0271866
29	0x3cd50e5d	0.026007826
30	0x3d47cf29	0.048781548
31	0x3c813acf	0.015775112
32	0xbcf547c9	-0.029941456
33	0x3c841e60	0.016127765
34	0xbd6d9025	-0.057998795
35	0xbd833583	-0.06406691
36	0xbc13eafd	-0.009028194
37	0xbbd22b54	-0.0064138565
38	0x3d0eaac1	0.034830812
39	0xbd425dc3	-0.0474527
40	0xbd0f864d	-0.03504019
41	0xbcde35c5	-0.027125249
42	0xbc250558	-0.010072075
43	0x3b86cf9f	0.004114106
44	0xbd172524	-0.036900654
45	0x3c19d8ab	0.009390037
46	0x3b5668f2	0.003271636
47	0xba83dbb5	-0.0010059985
48	0xbd22262f	-0.039587196
49	0x3d2c6872	0.042091794
50	0xbc20b66f	-0.009809121
51	0xbc863d2b	-0.016386589
52	0x3cd4d921	0.025982441
53	0x3c0b9fd2	0.008521991
54	0x3d128564	0.035771742
55	0xbc643bf0	-0.013930306
56	0xbd4cb138	-0.049973696
57	0x3c5cea4a	0.013483593
58	0xbce649a1	-0.02811128
59	0xbd1d9f75	-0.03848215
60	0xbd18b4e8	-0.0372819
61	0x3d455ed4	0.04818614
62	0x3c1feb35	0.009760668
63	0x3b81191c	0.003939761
64	0x39b17456	0.00033846748
65	0x3bf61062	0.007509277
66	0x3d0e3dab	0.03472678
67	0xbc4a34fb	-0.012341733
68	0x3a8caeb8	0.0010733223
69	0xbd343049	-0.04399136
70	0x3be8e99c	0.0071079265
71	0x3ca11e91	0.019667896
72	0x3d33ed1c	0.043927297
73	0x3bff8ffb	0.007799146
74	0xbaff6890	-0.0019486118
75	0xbd23e34f	-0.0400117
76	0x3d0df844	0.034660593
77	0xbc543814	-0.012952823
78	0x3d2b4b2f	0.041819748
79	0xba14ae78	-0.000567175
80	0xbd295614	-0.041341856
81	0xba7479d0	-0.0009326013
82	0x3c2694d1	0.0101673165
83	0x3c58fbc5	0.01324362
84	0x3c6374e1	0.013882847
85	0x3c89f196	0.01683883
86	0x3c568963	0.013094279
87	0x3b56402f	0.0032692065
88	0xbb34c9f1	-0.0027586187
89	0x3b0a8b82	0.0021140282
90	0x3ca3053d	0.019899959
91	0x3b91728c	0.004438704
92	0xbc8cf8af	-0.017208425
93	0x3c764cf8	0.015032999
94	0x3c70f1e8	0.014706112
95	0x3ba21337	0.0049461382
96	0xbd0bb8d9	-0.03411183
97	0xbcb7d859	-0.02244203
98	0xbce8c626	-0.028414797
99	0x3c96a974	0.018391348
100	0x3d0d0e29	0.034437332
101	0xbce38b34	-0.027776338
102	0x3c7277d9	0.014799082
103	0xbc2f6c5b	-0.010706986
104	0xbc7ee19f	-0.015556722
105	0xbd1dc5be	-0.03851866
106	0xbd41b106	-0.047287963
107	0x3d11643d	0.035495985
108	0x3ce33f36	0.027740102
109	0x3c24e1cb	0.010063599
110	0xbd2b586e	-0.04183238
111	0xbd2eb373	-0.042651605
112	0x3c706108	0.014671572
113	0xbae7289a	-0.0017636002
114	0xbb137465	-0.0022499796
115	0x3c923a92	0.017850194
116	0x3b7abf21	0.0038260894
117	0xbcbe9e96	-0.023268979
118	0x3cf9a7a0	0.030475438
119	0xbb8f68e2	-0.0043765167
120	0x3ba1b6a6	0.0049351035
121	0xbc16dd38	-0.009208016
122	0xbd4a3be9	-0.04937354
123	0x3ba28359	0.0049595055
124	0x39e96267	0.0004451454
125	0x3b9d4135	0.004799033
126	0xbd224dc1	-0.039624933
127	0x3d00cde8	0.031446368
128	0x3c8a7597	0.016901774
129	0x3cf805bd	0.030276174
130	0xbcd8912f	-0.026436416
131	0x3d14f781	0.03636885
132	0x3c02b068	0.007976629
133	0xbcfac6dc	-0.030612402
134	0x3cd21e90	0.025649339
135	0x3c25225d	0.010078994
136	0x3cea1eac	0.028579079
137	0xbcde6077	-0.027145607
138	0xbc92f7df	-0.01794046
139	0x3d292ab1	0.04130048
140	0x3cd722a8	0.026261643
141	0x3d3494a1	0.044087056
142	0xbd446cca	-0.04795531
143	0xbd178de1	-0.03700054
144	0xbcd72b1c	-0.026265673
145	0x3d430438	0.047611445
146	0xbcd95c99	-0.026533412
147	0x3c838ca3	0.016058272
148	0xbcf5a8ca	-0.029987711
149	0x3c522dc5	0.012828295
150	0xbb79cf1b	-0.003811783
151	0xbcf90ce8	-0.030401662
152	0xbcda206f	-0.026626794
153	0x3baa7477	0.005201872
154	0xbb722098	-0.0036945697
155	0xbd307917	-0.04308423
156	0x3cf68f66	0.030097675
157	0xbd0e3adb	-0.034724098
158	0x3be592ce	0.007006026
159	0x3d013832	0.031547733
160	0xbcc62f64	-0.02419252
161	0x3d1c1307	0.038104083
162	0xbcabbd0d	-0.02096417
163	0x3d0704ce	0.032963566
164	0xbcaa829c	-0.020814233
165	0xbd180dd1	-0.03712255
166	0xbbe877e5	-0.0070943707
167	0xbc488403	-0.012238505
168	0xbc2b8995	-0.010469814
169	0x3d5756df	0.05257308
170	0x3a9ea2be	0.0012102944
171	0xbc662685	-0.01404727
172	0xbc62f29b	-0.013851787
173	0xbd0252cd	-0.031817246
174	0x3d036b02	0.032084472
175	0xbca57d67	-0.020201398
176	0x3d5a6394	0.05331762
177	0xbc4e7e91	-0.012603418
178	0x3d00faad	0.031489063
179	0x3b4132ff	0.002947986
180	0x3cb5d9ea	0.022198636
181	0x3d0cf1c7	0.034410264
182	0x3b6a16bf	0.0035719124
183	0xbb20baea	-0.0024525472
184	0x3d38b823	0.04509748
185	0xbd1efac3	-0.038813364
186	0x3b0e211d	0.0021687218
187	0x3c97fb7b	0.018552532
188	0xbd14492a	-0.036202587
189	0xbce24324	-0.027619906
190	0x3d2ec9de	0.042672984
191	0x3a033e3d	0.00050065276
192	0xbd07bb61	-0.033137683
193	0x3d2ee158	0.042695373
194	0xbb8c0c86	-0.004273954
195	0x3cc1d856	0.023662727
196	0xbae72a52	-0.0017636514
197	0xbd18e56f	-0.03732818
198	0xbcf73c30	-0.030180067
199	0x3cc41617	0.023936315
200	0x3b940def	0.0045182626
201	0xbc5dc45e	-0.013535587
202	0xbd5915c2	-0.052999265
203	0x3d4ae6e4	0.0495366
204	0xbcbca999	-0.02303009
205	0xbca0d5f7	-0.019633276
206	0x3c697914	0.014250059
207	0x3cbf183c	0.023326986
208	0x39a23e86	0.0003094563
209	0xbcf083c9	-0.029359715
210	0xbba40d31	-0.0050064554
211	0xbcf52361	-0.029924097
212	0x3d275829	0.04085556
213	0x3d781d4d	0.06057482
214	0xbd263d1e	-0.04058563
215	0xbd1156a2	-0.03548301
216	0x3c89ab00	0.016805172
217	0xbcd9233f	-0.026506064
218	0x3c114573	0.008866656
219	0x3c8a275a	0.016864467
220	0xbd20d8dd	-0.039269317
221	0x3caefeec	0.02136179
222	0xbd200eb0	-0.039076507
223	0x3bb6a771	0.00557416
224	0xbb099894	-0.0020995485
225	0xbd6da472	-0.058018155
226	0xbd0932d8	-0.033495754
227	0x3c3582fe	0.011078594
228	0xbd33573d	-0.04378437
229	0x3bf226b7	0.007389869
230	0xbcd94fa1	-0.026527228
231	0x3d2fefa6	0.042953156
232	0xbce2b7eb	-0.02767559
233	0xbcc4aa1d	-0.024006898
234	0x3adf62f7	0.0017043044
235	0xbcf7333a	-0.030175794
236	0x3d201fdc	0.039092883
237	0xbce91496	-0.028452199
238	0xbd925a02	-0.07146074
239	0x3d1b3891	0.037895743
240	0xbbdcfd99	-0.0067440984
241	0xbd5bd5fc	-0.05367087
242	0x3c9db1d4	0.019249834
243	0x3d331bcf	0.043727692
244	0x3c9ed06f	0.019386498
245	0xbca95d3f	-0.020674346
246	0xbcf24090	-0.029571801
247	0x3ca63221	0.020287575
248	0x3d397f6c	0.045287535
249	0xbcf9c317	-0.030488534
250	0x3d3f8331	0.046755973
251	0xbbee6af5	-0.007275934
252	0x3d362cbd	0.04447626
253	0x3ce41ac6	0.027844798
254	0xbc4e0ed9	-0.012576782
255	0x3c1b6a42	0.009485783

features.4.bias f4 [32]
0	0x36922bb7	4.356228e-06
1	0xb659d0bb	-3.2457017e-06
2	0xb617894f	-2.2580678e-06
3	0x38058ef2	3.18428e-05
4	0x36d8af65	6.4577202e-06
5	0x36728522	3.6138304e-06
6	0xb5a93c7a	-1.2609082e-06
7	0x36bbbc1a	5.594932e-06
8	0xb801dbf4	-3.0960844e-05
9	0xb6b1b926	-5.296565e-06
10	0x36a0ceef	4.792462e-06
11	0x34d8792a	4.0321294e-07
12	0x3636e85a	2.725536e-06
13	0x3629d4f4	2.5306917e-06
14	0xb516470f	-5.598276e-07
15	0x37a354d6	1.9470619e-05
16	0xb8b0b079	-8.4252046e-05
17	0xb6566689	-3.1948168e-06
18	0x36488799	2.988125e-06
19	0x35fb1135	1.8705965e-06
20	0x36b048eb	5.2536975e-06
21	0x3705555e	7.947294e-06
22	0xb63a2c54	-2.7741962e-06
23	0xb74e83a5	-1.2309208e-05
24	0xb65b750d	-3.2701676e-06
25	0xb7578774	-1.2846536e-05
26	0xb5de55d1	-1.6565265e-06
27	0x37f36cd9	2.9018544e-05
28	0x37d067f8	2.4843946e-05
29	0xb79832e5	-1.8143512e-05
30	0x36f03f76	7.159945e-06
31	0x360f7854	2.13787e-06

features.5.weight f4 [32]
0	0x3f806229	1.0029956
1	0x3f81473f	1.0099868
2	0x3f7f4d55	0.99727374
3	0x3f7e5fbc	0.9936483
4	0x3f821fa9	1.0165912
5	0x3f81e0cb	1.0146726
6	0x3f7ee367	0.9956574
7	0x3f8111b6	1.008353
8	0x3f7f4333	0.9971191
9	0x3f7ee70a	0.9957129
10	0x3f8273e1	1.0191613
11	0x3f7cc382	0.9873582
12	0x3f80a2a3	1.0049633
13	0x3f827877	1.0193013
14	0x3f7dd70a	0.9915625
15	0x3f81f017	1.0151395
16	0x3f80f37f	1.0074309
17	0x3f82510e	1.0180986
18	0x3f7f5d1a	0.99751437
19	0x3f7f5481	0.9973832
20	0x3f820bc3	1.0159839
21	0x3f80ec3c	1.0072093
22	0x3f80e080	1.0068512
23	0x3f80f520	1.0074806
24	0x3f7dc5a6	0.9912971
25	0x3f8117e1	1.0085412
26	0x3f81acb3	1.0130829
27	0x3f818d48	1.0121241
28	0x3f82c087	1.0215005
29	0x3f81cc1a	1.0140412
30	0x3f7dd8cf	0.9915895
31	0x3f80735f	1.0035208

features.5.bias f4 [32]
0	0xbada6024	-0.0016660732
1	0xbc917bb3	-0.01775918
2	0xbb93c1e2	-0.0045091966
3	0xbbc72421	-0.006077305
4	0xbc4f4f96	-0.012653252
5	0xbcaf8dd2	-0.02142993
6	0xbba14918	-0.0049220435
7	0xbc8ae95d	-0.01695698
8	0xbc0fd4d1	-0.008778767
9	0xbc11d205	-0.00890017
10	0xbc83d86f	-0.016094415
11	0xbc4059a3	-0.011740121
12	0xbc8065a9	-0.015673475
13	0xbca29e5e	-0.019850906
14	0xbb77efe9	-0.0037832207
15	0xbc804e6b	-0.015662393
16	0xbb8a51f1	-0.004221194
17	0xbc8dafe4	-0.017295785
18	0xbaf209a0	-0.0018466003
19	0xbc4f3773	-0.0126474975
20	0xbc8c2948	-0.017109528
21	0xbc8ff6a7	-0.017573668
22	0xbbf8228b	-0.007572477
23	0x3ae41fe1	0.001740452
24	0x3aa24cc5	0.0012382498
25	0xbc01738f	-0.0079010865
26	0xbc65a5e8	-0.014016606
27	0xbc6b0f9c	-0.014346983
28	0xbc9ffb2a	-0.019528944
29	0xbc5308d6	-0.012880525
30	0xbc147356	-0.009060701
31	0xbc882c67	-0.016622735

features.5.running_mean f4 [32]
0	0xbefbb679	-0.49162653
1	0x3f1fd7b0	0.6243849
2	0x3dba5d0c	0.090997785
3	0xbee2c0d2	-0.44287735
4	0x3ed3ade5	0.41343608
5	0x3f7b1de6	0.98092496
6	0xbf39ba48	-0.7254987
7	0x3f270b22	0.6525136
8	0xbf055a58	-0.5209098
9	0xbe05761c	-0.13033336
10	0x3f038887	0.513802
11	0x3cd12a16	0.025532763
12	0x3ef7490a	0.48297912
13	0x3ed61055	0.41809335
14	0xbf124d6d	-0.5714939
15	0x3d582731	0.05277175
16	0xbe8a7a2c	-0.27046335
17	0x3dd39758	0.10331601
18	0xbef9ff24	-0.4882747
19	0x3e5da769	0.21645893
20	0x3f12f3ec	0.57403445
21	0x3ecb099e	0.39655775
22	0x3eff4a17	0.49861214
23	0xbf08d607	-0.5345158
24	0xbf99ad8a	-1.2006085
25	0xbe80e8ca	-0.25177604
26	0x3bcb64d5	0.0062070885
27	0x3dd301ec	0.10303101
28	0x3db76867	0.0895546
29	0xbd149a3a	-0.036279894
30	0x3d13cdfa	0.036085106
31	0x3ee5451a	0.44779283

features.5.running_var f4 [32]
0	0x3daba627	0.083813004
1	0x3eb593cb	0.3546432
2	0x3eb62df8	0.35581946
3	0x3d99e3ac	0.07514128
4	0x3e3cd82a	0.18441835
5	0x3ea8bd4a	0.32956916
6	0x3eb16bb3	0.3465248
7	0x3e3186ac	0.1733653
8	0x3d857a61	0.065174825
9	0x3c92da0f	0.017926244
10	0x3dc9249d	0.098214366
11	0x3dce4936	0.10072558
12	0x3e0a9bb0	0.13535953
13	0x3d821fa9	0.06353695
14	0x3f19b5a7	0.60042804
15	0x3d2c51a7	0.042070057
16	0x3ce92464	0.028459735
17	0x3cee3a8e	0.029080655
18	0x3dcdf088	0.10055643
19	0x3df33404	0.118751556
20	0x3df9ab2c	0.121908516
21	0x3dfa6736	0.12226717
22	0x3e174ec8	0.14776146
23	0x3e3c4d48	0.18388855
24	0x3f74e264	0.95657945
25	0x3d954afd	0.072896935
26	0x3d6bf681	0.05760813
27	0x3c934766	0.017978381
28	0x3ca6e659	0.02037351
29	0x3cdbc526	0.026827406
30	0x3e675e88	0.22594655
31	0x3db43d65	0.088007726

classifier.2.weight f4 [128, 1792]
0	0xbbc2be30	-0.0059430823
1	0x3c766e90	0.015041009
2	0xbc9b19ba	-0.018933166
3	0x3bbf989b	0.0058470494
4	0x3c1eed28	0.009700097
5	0xbce444df	-0.027864872
6	0xbb916f43	-0.0044383123
7	0x3c4d7d84	0.012542132
8	0xbcc6b42b	-0.024255833
9	0xbc6f9d7b	-0.014624949
10	0xbb93c14b	-0.0045091263
11	0xbcc061ac	-0.023484074
12	0xbaffbdaf	-0.0019511486
13	0xbcc09924	-0.023510523
14	0xbad6ec37	-0.0016397302
15	0x3b792590	0.0038016774
16	0x3c2c6ad4	0.010523517
17	0xbcc1322f	-0.0235835
18	0x3c185aed	0.009299022
19	0x3bd347e6	0.00644778
20	0xbb802117	-0.0039101946
21	0x3bcafba6	0.0061945496
22	0x3d184048	0.03717068
23	0x3d34d257	0.04414591
24	0x3b7e53d8	0.00388073
25	0xbc4ed446	-0.012623852
26	0xbbd2e169	-0.0064355624
27	0x3d66d5c6	0.056356214
28	0x3d154113	0.036439013
29	0xbd152f9f	-0.03642237
30	0x3bf65694	0.007517645
31	0xbceb5e2b	-0.028731426
32	0xbb558a46	-0.0032583638
33	0x3c8e8a87	0.01740004
34	0xbc680320	-0.014160901
35	0xbcb176b8	-0.021663055
36	0x3c496403	0.012291911
37	0x3ac3a887	0.0014927544
38	0xbcc1c4ad	-0.023653353
39	0xbc99115c	-0.018685035
40	0xbcc637fb	-0.024196615
41	0xbd36268e	-0.044470362
42	0xbd308438	-0.043094844
43	0xbd2a45e0	-0.041570544
44	0xbd106343	-0.035250913
45	0xbbe7e144	-0.0070764143
46	0xbcd27144	-0.025688775
47	0xbcaf6f66	-0.021415424
48	0xbd00ad12	-0.031415053
49	0xbc306262	-0.010765644
50	0x3c7600b9	0.015014821
51	0xbc82f152	-0.015984211
52	0x39ba4f7f	0.00035535914
53	0x3c970665	0.018435666
54	0x3c069a22	0.008215459
55	0xbc52c234	-0.012863684
56	0x3c32a800	0.010904312
57	0xbc2b31cd	-0.010448885
58	0xbb9b2909	-0.0047351164
59	0xba38e1eb	-0.00070527074
60	0xbc1a6561	-0.009423585
61	0x3ca3f62f	0.02001485
62	0x3b2e05ec	0.0026553823
63	0x3c959ed8	0.01826422
64	0x3c9a5f26	0.018844198
65	0x3ca82f4d	0.020530367
66	0x3bfca08f	0.0077095698
67	0x3c26e4eb	0.010186414
68	0x3c4675eb	0.012113075
69	0x3b6d2f11	0.0036191384
70	0x3c0e92be	0.008701978
71	0xbc1b2734	-0.009469796
72	0xbc172401	-0.009224893
73	0x3c4ccf52	0.012500601
74	0x3ae5ec9e	0.0017541831
75	0xbcc7073b	-0.02429544
76	0xbbfb0b58	-0.0076612644
77	0xbabbeea1	-0.0014338085
78	0xbb15721c	-0.002280361
79	0xb9892132	-0.0002615541
80	0x3b186daa	0.0023258724
81	0x3c3b06b4	0.011415172
82	0xbb5ff320	-0.0034172013
83	0x3c0c5826	0.008565938
84	0x3b308ea0	0.002694048
85	0x3c4141a1	0.011795432
86	0xbbc384e7	-0.005966771
87	0x3cb77671	0.022395344
88	0x3c15dfb6	0.009147575
89	0x3c356de4	0.011073563
90	0xbc2ea260	-0.01065883
91	0xbc54aaa9	-0.012980142
92	0xba4bc0b4	-0.00077725505
93	0xbaadfaf4	-0.0013273642
94	0x3bd95673	0.00663262
95	0x3ca5c251	0.020234259
96	0x3c964c8c	0.018347047
97	0xbc7e5680	-0.015523553
98	0x3cb76597	0.022387309
99	0x3cd87191	0.02642134
100	0x3caf7e7f	0.021422623
101	0x3ae8b7e4	0.0017754999
102	0x3cefa282	0.029252294
103	0x3d124f2d	0.03572004
104	0x3c6a9244	0.014317099
105	0xbc08c722	-0.008348258
106	0xbc8f64e7	-0.017504169
107	0xbc5acb48	-0.01335413
108	0x3bb2aca8	0.005452711
109	0xbb88319d	-0.004156305
110	0xbcbec05b	-0.023285082
111	0x3c9eec77	0.019399865
112	0xbc299174	-0.01034962
113	0x3bc3dd8e	0.005977339
114	0xbb0ef442	-0.002181307
115	0xbc23e1e5	-0.010002588
116	0xbc2493a3	-0.010044965
117	0xbc96ee52	-0.018424187
118	0x3ba8cbc6	0.005151245
119	0x3d1897d1	0.03725416
120	0xbb83a7e8	-0.0040178187
121	0xbbcf06ea	-0.006317963
122	0x3c00ca6e	0.007860763
123	0xbcb81449	-0.02247061
124	0x3c247739	0.0100381905
125	0x3b89c078	0.0042038523
126	0x3c84ccda	0.016210962
127	0xbc658c22	-0.014010461
128	0xbc35c088	-0.011093266
129	0xbc57aab6	-0.013163259
130	0x3c22ab40	0.0099285245
131	0x3c227a29	0.009916821
132	0x3c88128d	0.016610408
133	0x3b4ea161	0.0031529295
134	0x3c4811ff	0.012211322
135	0x3b290b82	0.0025794213
136	0x3b940cc5	0.004518124
137	0x3c84ddd2	0.016219053
138	0x3b845735	0.004038716
139	0x3a6a422b	0.00089362514
140	0xbcaae4ff	-0.020861147
141	0xbb1c8a5d	-0.0023886182
142	0x3cb27c38	0.021787748
143	0xbb652cca	-0.0034969323
144	0x3bae7697	0.0053241956
145	0xbc45ff35	-0.012084772
146	0xbca5b022	-0.020225588
147	0xbccda50e	-0.025103118
148	0x3c1202a4	0.008911762
149	0x3cb5be3d	0.02218544
150	0x3c329769	0.010900357
151	0x3ccf9536	0.025339704
152	0x3a6c9f3d	0.0009026414
153	0xbc45ca48	-0.012072153
154	0xbb8d34ef	-0.0043092887
155	0x3c7d61af	0.015465184
156	0xbc4d53ac	-0.012532156
157	0xbbf5b1d0	-0.0074980035
158	0x3bec6a87	0.0072148475
159	0xb9c107f3	-0.0003681775
160	0xbb288811	-0.0025715868
161	0x3c912c62	0.017721359
162	0xbc85c721	-0.016330304
163	0x3c6bef7c	0.014400359
164	0xbb888b38	-0.004166987
165	0x3cb3838d	0.021913314
166	0xbc637e9a	-0.013885165
167	0xbbe153fb	-0.0068764663
168	0xbc26379f	-0.010145097
169	0xbc4ac907	-0.01237703
170	0xbb17cf86	-0.0023164465
171	0x3c96d76e	0.018413272
172	0xbbe7aaf4	-0.0070699397
173	0x3c8a0978	0.016850218
174	0x3bae980a	0.005328183
175	0x3c83b6b5	0.016078332
176	0xbcc6231a	-0.02418666
177	0xbcb8409b	-0.022491744
178	0xbc6e3009	-0.01453782
179	0xbc9688a6	-0.018375706
180	0xbcf9f8ca	-0.03051414
181	0xbd07c1f0	-0.033143938
182	0x3c58ab82	0.013224484
183	0x3bab28db	0.005223376
184	0x3c892835	0.016742805
185	0x3b2484e9	0.0025103635
186	0xbc8796d0	-0.016551405
187	0xbc71d205	-0.014759545
188	0xbcddc95d	-0.027073557
189	0x3aa9ecf7	0.0012964298
190	0x3c34fb51	0.011046247
191	0xbcdae36b	-0.02671977
192	0x3b9033fd	0.0044007287
193	0xbabb93b3	-0.0014310986
194	0xbcf980dc	-0.030456953
195	0xbbb394f5	-0.0054804035
196	0x39bda1c1	0.00036169405
197	0xbc81900f	-0.015815763
198	0xbb1ac95e	-0.002361856
199	0xbbe47d0f	-0.006972916
200	0x3c875bfa	0.01652335
201	0xbb78f7bb	-0.0037989456
202	0xbc8ef2c8	-0.017449751
203	0xbc90d311	-0.01767877
204	0xbc2632fa	-0.01014399
205	0xbb5607b8	-0.003265841
206	0xbbc43365	-0.005987572
207	0x38246c44	3.9201477e-05
208	0xbbcced76	-0.0062538935
209	0xbcc4fade	-0.024045404
210	0xbab117f4	-0.0013511167
211	0xbcf21a3b	-0.029553523
212	0xbd127c6c	-0.03576319
213	0xbced9d32	-0.02900562
214	0xbcafb677	-0.02144931
215	0xbca97f21	-0.020690503
216	0x3c8076dc	0.015681677
217	0xbca23a53	-0.019803202
218	0xbb87e5d9	-0.004147273
219	0xbcfb1a0f	-0.030652074
220	0xbc9ad5d7	-0.018900795
221	0xbc88fab7	-0.016721113
222	0xbcaebcf9	-0.021330344
223	0x3a378509	0.000700072
224	0xbc42800c	-0.011871349
225	0x3c27fad0	0.010252669
226	0xbcb63f70	-0.022247046
227	0xbc459b91	-0.012061016
228	0xbb6cdc23	-0.0036141954
229	0xbaaf1e9e	-0.0013360565
230	0x3c9229b9	0.01784216
231	0x3a498659	0.0007687561
232	0x3d32e355	0.043673832
233	0x3cc18171	0.023621293
234	0x3c98cde8	0.018652871
235	0x3c2c0324	0.010498796
236	0x3cfc0787	0.030765308
237	0x3ccb3f62	0.024810497
238	0x3bab0b27	0.0052198353
239	0x3c1bd6b3	0.0095116375
240	0x3bf8d1f9	0.00759339
241	0xbbe86173	-0.007091695
242	0x3c934f7e	0.01798224
243	0xbcb754e2	-0.022379342
244	0xbbc58e2f	-0.0060289125
245	0xbc6d0e6b	-0.01446877
246	0x3c20d6db	0.009816851
247	0xbc33e5ca	-0.010980079
248	0x3cb1a8a4	0.02168686
249	0x3bb4372d	0.0054997415
250	0xba88c5cf	-0.0010434928
251	0x3c6376a0	0.013883263
252	0x3bd2b019	0.006429684
253	0x3bd1e25d	0.0064051584
254	0x3c920e35	0.01782904
255	0x3ce8ef69	0.028434472

classifier.2.bias f4 [128]
0	0xbc7ca674	-0.015420545
1	0xbcc97a32	-0.0245944
2	0xbccf4e2b	-0.025305828
3	0xbcd34d83	-0.025793796
4	0xbb374e29	-0.002797017
5	0x3c5f9f68	0.013648845
6	0xbb2dba9e	-0.0026508938
7	0xbc41b651	-0.011823253
8	0x3c6231fc	0.0138058625
9	0x3c852eab	0.016257605
10	0x3c86fc48	0.016477719
11	0x3c773234	0.015087653
12	0xbcb59cd3	-0.022169506
13	0xbc99e19c	-0.018784337
14	0xbcc004c4	-0.023439772
15	0x3c438c9c	0.011935379
16	0xbcb49036	-0.022041421
17	0x3c6d2a61	0.014475436
18	0xbc6336f7	-0.013868085
19	0xbb8ec7fe	-0.004357337
20	0x3bba6c5b	0.0056891865
21	0x3c652a02	0.013987066
22	0xbc2884a1	-0.010285527
23	0x3b1297c5	0.0022368294
24	0x3c26a8f5	0.010172118
25	0x3c1bf899	0.0095197195
26	0xbc34fdb5	-0.011046817
27	0xbbdc200a	-0.0067176865
28	0x3c096227	0.008385218
29	0xb8b879da	-8.7965e-05
30	0x3c865064	0.016395755
31	0xbc61811b	-0.013763691
32	0xbcbe03cc	-0.02319517
33	0xbc8c3922	-0.017117087
34	0x3cb3e5d6	0.02196018
35	0xba42c7b5	-0.00074302714
36	0xba7651d1	-0.0009396347
37	0x3c07a9d4	0.008280236
38	0x3c61d9b4	0.013784815
39	0x3c38d2bf	0.0112807145
40	0xbbe82400	-0.0070843697
41	0x3c28a3a5	0.010292922
42	0xbcaaee51	-0.020865591
43	0x3c1a1caf	0.009406253
44	0x3c0e01ee	0.008667452
45	0x3cae2ea2	0.02126247
46	0xbc8f1aac	-0.017468773
47	0xbb8b73aa	-0.0042557316
48	0xbbc8b7ff	-0.0061254497
49	0x3c150a7d	0.009096739
50	0x3c4b880c	0.012422573
51	0x3c4938a3	0.01228157
52	0x3c9eab65	0.019368837
53	0x3b140475	0.0022585664
54	0xbc2d1ff6	-0.010566702
55	0xbc36e2d3	-0.011162478
56	0xbccc30fd	-0.024925703
57	0x3b4eaa95	0.003153478
58	0xbc2fd8c5	-0.010732834
59	0xbb9fcb3c	-0.0048765223
60	0xbbeae096	-0.007167886
61	0xbc90f360	-0.017694175
62	0x3c86f522	0.01647431
63	0x3c91909c	0.01776915
64	0x3ac38f5e	0.0014920046
65	0xbc81f3c8	-0.015863314
66	0x3c1849fc	0.009294983
67	0xbc5bde72	-0.013419734
68	0x3b163f48	0.0022925902
69	0xbc0543d9	-0.008133852
70	0x3c0d5513	0.00862624
71	0x3bab963a	0.0052364143
72	0xbca2b888	-0.019863382
73	0x3ac1ee74	0.0014795796
74	0xbba5a035	-0.0050544986
75	0xbb63e291	-0.0034772495
76	0x3c99e36f	0.018785207
77	0x3c43bd6d	0.011947018
78	0xbb51e171	-0.0032025243
79	0xbbd8800c	-0.0066070613
80	0xbcb29247	-0.021798266
81	0x3bbd0ba8	0.005769212
82	0x3c730b83	0.014834288
83	0x3bfa88bc	0.0076456945
84	0xbb3d6b10	-0.0028902926
85	0x3c4dbbb1	0.012556956
86	0xbc8a8d37	-0.01691304
87	0xbc585c33	-0.013205576
88	0xbc14a697	-0.009072921
89	0x3c56abba	0.013102466
90	0x3c1df063	0.009639832
91	0x3c80a4f5	0.015703658
92	0xbc55e0ec	-0.013054114
93	0xbb90381f	-0.0044012214
94	0xbc530aac	-0.012880962
95	0xbcabe578	-0.020983443
96	0xbc1477bb	-0.009061749
97	0xbcd07fa2	-0.025451485
98	0xbc154c0a	-0.009112367
99	0x3a819dba	0.0009888925
100	0xbc6b68c1	-0.014368237
101	0x3c0484ec	0.008088332
102	0xbaf71cd0	-0.0018853191
103	0xbb4a24a8	-0.0030844603
104	0xbcb2546e	-0.021768775
105	0x3bca82cc	0.006180143
106	0xbafcb8ef	-0.0019281189
107	0x3c991324	0.018685885
108	0x3b673b5d	0.0035283186
109	0x3cc02a1f	0.023457585
110	0xba11b64c	-0.00055584754
111	0xbcbeb44d	-0.023279333
112	0xbc1d63a0	-0.009606272
113	0x3a9987e9	0.0011713478
114	0x3d1ca310	0.038241446
115	0xbc9eac61	-0.019369306
116	0xbc83a602	-0.01607037
117	0x3c5296ef	0.012853368
118	0x3c060a7c	0.008181211
119	0x3bfb371d	0.007666482
120	0x3c3e8929	0.011629381
121	0xb9a430cc	-0.00031316874
122	0x3c31d7c2	0.010854663
123	0x3c214281	0.009842516
124	0xbcbafa6b	-0.022824487
125	0x3c1ee67d	0.009698507
126	0x3c21772e	0.009855075
127	0x3c697471	0.014248953

classifier.4.weight f4 [3, 128]
0	0xbdb2f0fa	-0.08737369
1	0xbc37ca52	-0.0112176705
2	0xbd102876	-0.035194837
3	0x3cabd0ae	0.02097353
4	0xbb0c52b7	-0.0021411607
5	0xbd51bab5	-0.05120345
6	0x3d07e22d	0.033174682
7	0x3bad550b	0.005289679
8	0x3d380c88	0.044933826
9	0x3cb96636	0.022631746
10	0xbc2f6742	-0.010705771
11	0x3dbe97c3	0.0930629
12	0x3c2e55ad	0.010640544
13	0x3db2bfb2	0.08727969
14	0x3be802dd	0.0070804195
15	0x3ba4987b	0.00502306
16	0x3c997d4a	0.0187365
17	0xbdf0a655	-0.11750475
18	0xbd600aa6	-0.054697655
19	0x3b65c94c	0.003506261
20	0xbcb2cf17	-0.021827264
21	0x3d17b458	0.037037224
22	0x3dc5f49d	0.09665797
23	0x3c59cacb	0.0132929785
24	0x3cf39e9c	0.029738717
25	0xbd04ba85	-0.03240444
26	0x3c38d6c4	0.011281673
27	0xbd1967dd	-0.037452567
28	0x3dc023bf	0.09381818
29	0x3cc41109	0.023933904
30	0xbd0176d1	-0.031607453
31	0xbd9078ea	-0.070543125
32	0xbda02664	-0.078198224
33	0x3cec54da	0.028849054
34	0xbe026dfa	-0.12737265
35	0xbda99dfc	-0.08282086
36	0xbc2c9419	-0.010533356
37	0xbd3dcb54	-0.046336487
38	0xbdb95fe5	-0.090514936
39	0x3cf99062	0.030464355
40	0x3cbb8a93	0.022893226
41	0x3d34fdb7	0.044187274
42	0x3cf5c0f2	0.02999923
43	0xbd3a49c2	-0.045480497
44	0x3d04399b	0.0322815
45	0x3dc6d2e8	0.09708196
46	0x3da78dbe	0.08181332
47	0xbd38f7b5	-0.045158107
48	0xbdce4c14	-0.100731045
49	0xbdbe9311	-0.093053944
50	0xbda6bb20	-0.0814116
51	0x3cbc65a9	0.022997694
52	0x3da8c1a3	0.08240058
53	0x3c7796c3	0.015111628
54	0xbd9e5089	-0.077302046
55	0x3da212c9	0.07913739
56	0x3d52db96	0.051478945
57	0x3bfdaab6	0.0077412976
58	0x3c007d26	0.007842338
59	0x3ae82e31	0.0017713961
60	0xbda9b525	-0.08286504
61	0xbde7beec	-0.11315712
62	0x3d5d8817	0.054084864
63	0x3cb8298c	0.022480749
64	0x3d4aec11	0.049541537
65	0xbc8ceffd	-0.01720428
66	0x3d6f7036	0.058456622
67	0xba71c8df	-0.00092233525
68	0x3cdbd0f3	0.026833033
69	0xbd1fdb2d	-0.03902738
70	0xbd7059e4	-0.058679476
71	0xbd413e2e	-0.04717844
72	0xbc592460	-0.013253301
73	0x3dc17371	0.09445847
74	0x3da7e141	0.08197261
75	0xbcf268f4	-0.029591061
76	0xbd3b0eb0	-0.045668304
77	0xbd8c5a03	-0.06853106
78	0xbd3d4ac8	-0.046213895
79	0xbdd8e5b5	-0.10590688
80	0xbdac2709	-0.08405883
81	0x3da6641d	0.08124564
82	0x3acc8952	0.001560489
83	0x3d296916	0.041359983
84	0xbd0b9b5a	-0.0340837
85	0x3d816d89	0.0631972
86	0xbd6f1de9	-0.058378134
87	0x3c75d452	0.015004234
88	0xbdba7b1d	-0.09105513
89	0xbd9ea0fa	-0.077455476
90	0x3da3a6c7	0.07990795
91	0x3d2e6848	0.04257992
92	0xbc986ac9	-0.018605607
93	0x3d0a7c8b	0.03381018
94	0xbb434059	-0.0029792993
95	0xbd3e7891	-0.0465017
96	0x3d3c320d	0.04594617
97	0xbd5c8b21	-0.05384362
98	0xbd33df8a	-0.043914355
99	0x3cd82e37	0.026389224
100	0xbd4b2910	-0.049599707
101	0x3d9c0494	0.07618061
102	0x3d86d3b0	0.06583345
103	0xbc5aeb0d	-0.013361705
104	0x3d21ff0a	0.039549865
105	0x3d2fc975	0.042916734
106	0xbceb0c6a	-0.028692443
107	0x3cbc113d	0.022957439
108	0xbda1932a	-0.078893974
109	0xbe040734	-0.12893373
110	0xbcf547cb	-0.02994146
111	0x3da0f6e5	0.078595914
112	0xbc916c51	-0.017751845
113	0x3cdb12a3	0.026742285
114	0x3da46aa3	0.08028152
115	0x3cd18bbd	0.025579328
116	0xbc823814	-0.01589588
117	0x3d261128	0.040543705
118	0x3c8889f0	0.016667336
119	0xbc9030da	-0.01760142
120	0x3d855235	0.0650982
121	0xbd930b39	-0.07179875
122	0x3d67b0d6	0.05656513
123	0x3d4e2a03	0.050333034
124	0xbdc146b2	-0.09437312
125	0xbcf56a58	-0.029957935
126	0x3d9b4020	0.0758059
127	0x3c956f4d	0.018241549
128	0x3dbcb59c	0.09214327
129	0x3cc3411b	0.023834756
130	0x3d1a6f28	0.037703663
131	0x3d1a1f4c	0.037627503
132	0x3c877454	0.016534962
133	0x3c0fe034	0.0087814815
134	0x3c74c087	0.01493848
135	0x3c8929ff	0.016743658
136	0xbdd84433	-0.10559883
137	0xbd94b9d5	-0.07262007
138	0x3d68e6d6	0.056860767
139	0x3d8cc1e4	0.06872919
140	0x3daf7399	0.085669704
141	0x3d0173c5	0.031604547
142	0xbd3065ee	-0.043065958
143	0xbca100d0	-0.019653708
144	0xbbbb4544	-0.005715044
145	0xbd3e05d4	-0.046392277
146	0xbdcbfbe7	-0.09960156
147	0x3b8f297f	0.0043689604
148	0xbcd99c77	-0.026563866
149	0x3ce789a8	0.028263882
150	0x3c8eeb4f	0.017446188
151	0xbc3b52b4	-0.011433292
152	0xbc11cde8	-0.0088991895
153	0xbd03622a	-0.03207604
154	0x3c873c35	0.016508201
155	0xbd6cf5ad	-0.057851482
156	0x3d941438	0.07230419
157	0x3c2fbc2e	0.010726018
158	0xbd8e7e06	-0.06957631
159	0x3d971f28	0.073789895
160	0x3b61ec42	0.0034473096
161	0x3d4f691d	0.050637353
162	0xbce1cf6a	-0.027564723
163	0x3d2c4f42	0.042067774
164	0x3d9cc2c0	0.07654333
165	0xbc9417f8	-0.018077835
166	0x3da229dc	0.0791814
167	0xbca1a78b	-0.019733211
168	0xba837c2b	-0.0010031512
169	0xbda7d4b8	-0.0819487
170	0xbdab1a42	-0.08354618
171	0x3d62d367	0.05537739
172	0xbd23be76	-0.03997656
173	0x3c74e85d	0.014947978
174	0x3d48db8a	0.049037494
175	0xbb3b785c	-0.0028605675
176	0x3d6bb1c8	0.057542592
177	0xbd8e9470	-0.06961906
178	0xbcfbeff3	-0.030754065
179	0x3d1dee76	0.038557492
180	0x3c53ff0f	0.012939229
181	0xbc0fc5c7	-0.008775181
182	0xbdcbdc3d	-0.099541165
183	0xbbf0745f	-0.0073380913
184	0xbd005127	-0.031327393
185	0x3cb20d9f	0.02173501
186	0xbbfcc685	-0.007714095
187	0x3ca3a5df	0.019976554
188	0x3cf18ad2	0.02948514
189	0x3c7c5342	0.01540071
190	0x3cd03556	0.025416058
191	0x3aa49f57	0.0012559694
192	0x3d81d222	0.06338908
193	0x3c2905c2	0.010316314
194	0x3d2195e5	0.03944959
195	0xbdd1c6b8	-0.10242981
196	0x3d830a71	0.06398476
197	0x3d862037	0.06549113
198	0x3d66988d	0.056297828
199	0xbd6b312b	-0.057419937
200	0x3d81b61b	0.06333562
201	0xbd31d2c0	-0.043413877
202	0xbd9da136	-0.07696764
203	0xbcf9bd93	-0.030485904
204	0xbb164f18	-0.0022935327
205	0x3df034b5	0.11728803
206	0xbd5d5f8b	-0.054046195
207	0xbc6d945e	-0.0145007055
208	0x3dbbdde8	0.09173185
209	0x3cca4a7f	0.024693726
210	0xbd46dcd7	-0.048550453
211	0xbd045036	-0.032303058
212	0xbda55165	-0.080721654
213	0x39f1d8fc	0.00046128768
214	0xbd49ac88	-0.049236804
215	0xbcb902dc	-0.022584371
216	0xbded673b	-0.11591955
217	0x3c783402	0.015149118
218	0x3d2d2229	0.042268906
219	0xbc283424	-0.010266338
220	0x3d2bdfad	0.04196136
221	0xbc1d487c	-0.009599801
222	0x3d79e3e3	0.061008345
223	0x3d36da20	0.044641614
224	0xbcc9119d	-0.024544531
225	0xbd80e475	-0.06293575
226	0xba9dc8c4	-0.0012037982
227	0xbd86fc0e	-0.06591044
228	0xbcdcd125	-0.026955197
229	0x3d89d7d1	0.06730617
230	0x3cb37f98	0.021911427
231	0xbd4b2b7a	-0.04960201
232	0x3cd9edd0	0.026602656
233	0x3c3a2a47	0.011362619
234	0x3d0484ca	0.0323532
235	0x3d8f3c07	0.06993871
236	0x3d3c3ab0	0.045954406
237	0xbd076122	-0.033051617
238	0xbc36d0a6	-0.011158144
239	0xbc3472bd	-0.011013684
240	0xbd0fc46f	-0.035099443
241	0xbbbf558b	-0.005839055
242	0xbc038fcc	-0.008029889
243	0xbd1844f4	-0.037175134
244	0x3da9d301	0.08292199
245	0x3cee1d36	0.029066663
246	0xbd112286	-0.035433315
247	0xbcbfd7a1	-0.02341825
248	0xbd98407a	-0.07434173
249	0xbd588539	-0.052861426
250	0xbc7bfda3	-0.015380296
251	0xbb19fc3f	-0.0023496298
252	0x3db3c5e1	0.08777977
253	0x3b3b35dd	0.002856604
254	0x3d28013a	0.041016795
255	0xbd520ea7	-0.051283505

classifier.4.bias f4 [3]
0	0xbd0c952f	-0.03432196
1	0xbc674334	-0.014115144
2	0x3cb8dfc5	0.02256764
