Resources/best_hsi_model.pth (torch, 984469 bytes, 16 tensors)

features.0.weight f4 [16, 1, 3, 3, 3]
-0.038860563 -0.19455573 -0.09875447 -0.012176642 -0.14249733 0.008343528 -0.13232899 -0.17720242
0.16417235 0.15133306 0.11190908 -0.043272797 0.1733897 -0.13543835 0.104835674 0.056180995
0.096187 -0.16651464 0.011560543 -0.0031356064 0.10105844 0.078777604 -0.12545957 -0.098676786
-0.008395445 0.18994743 0.06966442 0.17969146 -0.12620758 -0.19299266 -0.05696321 0.15584476
-0.12714139 0.03847497 -0.19452123 -0.03933547 -0.1972872 0.1561183 0.03665428 0.075318314
-0.022815367 0.11156426 0.0607775 0.01202504 -0.15920268 -0.031897057 0.04190774 0.06363195
-0.17610106 0.110972546 0.14207649 -0.02471615 -0.14975317 -0.034439478 -0.100582786 0.05340091
0.081377134 -0.00026746164 -0.02669956 -0.009445999 0.008695099 -0.016806431 0.1603923 0.08924255
0.056171946 -0.09801214 0.017215835 0.021816174 0.1326793 -0.051368784 0.14135976 0.15080157
0.15614668 -0.07138725 -0.09047364 -0.1707847 -0.1854403 -0.1775347 0.0017657419 -0.07423195
0.13457122 -0.17576696 -0.13743639 -0.019601075 0.015307763 0.16116682 -0.12556997 -0.117091954
-0.07089156 0.12030251 0.12897988 0.15672952 -0.0343193 0.006283735 -0.16449606 -0.0822411
0.06212033 -0.19533287 0.15086284 -0.08850588 0.12847428 -0.027479075 0.15287596 0.10759935
0.147191 -0.17034328 -0.043270238 -0.018854765 -0.13848874 -0.17879078 0.122830026 0.1138675
0.041741494 0.034872252 -0.136585 -0.0837152 -0.11823107 -0.026232295 -0.043255568 -0.030116145
0.0880047 0.06327503 0.045278024 -0.18562582 -0.107201904 0.0056676725 0.105502754 -0.15166055
-0.06441516 0.12087498 0.1633704 -0.009489983 0.14653115 0.14965619 0.13036954 -0.006807014
0.051753163 -0.010389164 0.050024413 0.11985558 0.02528721 -0.042038042 -0.16545767 0.11809892
0.12640321 0.059931185 0.022971362 -0.039139785 -0.054063126 -0.01667409 0.0798554 -0.16506834
0.07068969 -0.054413997 -0.20119113 -0.14267218 0.008318408 0.027130667 -0.13500941 -0.08866294
-0.10475446 -0.18760148 0.07910488 -0.11622951 0.069956765 0.16445802 -0.13186572 0.14319709
0.16959722 0.16124494 0.012007357 -0.021161051 0.14416383 0.0640256 -0.02698527 -0.04312375
-0.13622409 0.0040975357 0.1313684 0.19512618 0.116638154 -0.17843686 0.17123583 0.08915088
0.13289781 -0.20445439 0.051430017 -0.031406455 -0.08175119 0.18307859 -0.17588915 -0.19378008
-0.13561217 -0.0013265305 -0.09345252 -0.09132615 -0.040695075 -0.056166317 0.055052917 -0.16748701
0.03873809 -0.00956142 0.14151442 -0.097684965 -0.10529085 0.14630339 0.1851115 0.018356552
-0.0018779335 -0.16960312 -0.139172 0.12796485 0.14238837 0.01859513 -0.031892944 0.0539036
-0.18437907 0.08669798 0.026858041 -0.17441835 -0.0016555211 -0.06443254 -0.039974876 0.05963113
-0.11196686 0.14191374 -0.045855545 -0.10123349 0.026942538 -0.20452684 0.14354704 0.020216068
0.00092936435 -0.046942964 -0.049947836 0.004163534 0.18715188 0.18894438 -0.032242432 0.14200428
-0.15105028 0.09411654 0.10341897 -0.018962173 -0.09302661 -0.17773536 0.17654468 -0.03356065
-0.18625699 0.037832413 -0.072302535 0.14907144 -0.025972027 -0.045094185 0.17612903 0.1828303
00000000: 412c 1fbd 9e39 47be c93f cabd 8a80 47bc
00000010: d2ea 11be 4bb3 083c 4081 07be 8d74 35be
00000020: cc1c 283e 0ef7 1a3e 9630 e53d d13e 31bd
00000030: 128d 313e 5ab0 0abe 16b4 d63d 0b1e 663d
00000040: b1fd c43d d082 2abe 6f68 3d3c bf7e 4dbb
00000050: baf7 ce3d 2756 a13d 7978 00be 0e17 cabd
00000060: 0c8d 09bc 9481 423e 38ac 8e3d 0a01 383e
00000070: 8f3c 01be de9f 45be 4152 69bd c595 1f3e
00000080: 5a31 02be ee97 1d3d 9330 47be 3b1e 21bd
00000090: a805 4abe 7add 1f3e cc22 163d 7d40 9a3d
000000a0: 4be7 babc ce7b e43d d4f1 783d ac04 453c
000000b0: 0706 23be 7da6 02bd 73a7 2b3d 7851 823d
000000c0: d653 34be 9345 e33d 807c 113e 8679 cabc
000000d0: e558 19be 6910 0dbd 59fe cdbd eaba 5a3d
000000e0: 0ea9 a63d 183a 8cb9 09b9 dabc 64c3 1abc
000000f0: e375 0e3c a4ad 89bc e13d 243e ccc4 b63d
00000100: 8e14 663d 97ba c8bd 3908 8d3c d5b7 b23c
00000110: 15dd 073e 1368 52bd 9dc0 103e ba6b 1a3e
00000120: eae4 1f3e 7b33 92bd 3e4a b9bd 2fe2 2ebe
00000130: 10e4 3dbe a8cb 35be 7770 e73a ec06 98bd
00000140: 0acd 093e 41fc 33be 20bc 0cbe 6f92 a0bc
00000150: 69cd 7a3c ea08 253e 6a95 00be e8cd efbd
00000160: 982f 91bd 2a61 f63d 4d13 043e b47d 203e
00000170: 6592 0cbd cae7 cd3b a871 28be 066e a8bd
00000180: e371 7e3d 5705 48be ca7b 1a3e 9242 b5bd
00000190: c38e 033e cc1b e1bc 848b 1c3e 0c5d dc3d
000001a0: 3db9 163e 786e 2ebe 223c 31bd 4f75 9abc
000001b0: fecf 0dbe ee14 37be 4f8e fb3d 5d33 e93d
000001c0: 21f9 2a3d 35d6 0e3d f0dc 0bbe e072 abbd
000001d0: 2223 f2bd 1ce5 d6bc c02c 31bd 22b6 f6bc
000001e0: cf3b b43d 5796 813d 7375 393d b214 3ebe
000001f0: ac8c dbbd e2b7 b93b d411 d83d e74c 1bbe
00000200: 18ec 83bd 4d8d f73d 924a 273e e07b 1bbc
00000210: 430c 163e 793f 193e 987f 053e 5f0d dfbb
00000220: 20fb 533d 5037 2abc 66e6 4c3d d876 f53d
00000230: 1f27 cf3c 1530 2cbd bc6d 29be d9dd f13d
00000240: d86f 013e 677a 753d 702e bc3c 0a51 20bd
00000250: 4c71 5dbd 1a98 88bc 3a8b a33d ad07 29be
00000260: c2c5 903d 36e1 5ebd 0c05 4ebe a818 12be
00000270: ef49 083c 2241 de3c e83f 0abe ea94 b5bd
00000280: 8289 d6bd 9a1a 40be bd01 a23d bd09 eebd
00000290: 7e45 8f3d af67 283e cf07 07be 42a2 123e
000002a0: e5aa 2d3e 651d 253e 81ba 443c f159 adbc
000002b0: af9f 133e db1f 833d 3710 ddbc 87a2 30bd
000002c0: 547e 0bbe 9f44 863b 7085 063e 28cf 473e
000002d0: fcdf ee3d 27b8 36be 7258 2f3e bd94 b63d
000002e0: 5d16 083e 7e5c 51be 48a8 523d 0ea4 00bd
000002f0: 2b6d a7bd f478 3b3e 491c 34be 496e 46be
00000300: ebdd 0abe fade adba 0964 bfbd 3409 bbbd
00000310: e1af 26bd a70e 66bd 2b7f 613d b781 2bbe
00000320: d5ab 1e3d 81a7 1cbc 28e9 103e 0e0f c8bd
00000330: bba2 d7bd 8ed0 153e de8d 3d3e 7b60 963c
00000340: fe24 f6ba 71ac 2dbe 1b83 0ebe 3809 033e
00000350: 42ce 113e d054 983c 2da2 02bd 05ca 5c3d
00000360: decd 3cbe b68e b13d 6505 dc3c b99a 32be
00000370: 12fe d8ba 35f5 83bd b2bc 23bd c63f 743d
00000380: e24e e5bd d651 113e 06d3 3bbd 8153 cfbd
00000390: 99b6 dc3c 7c6f 51be fffd 123e 2b9c a53c
000003a0: 96a0 733a 4447 40bd 1a96 4cbd 416e 883b
000003b0: bea4 3f3e a37a 413e a410 04bd 9269 113e
000003c0: edac 1abe 2cc0 c03d 53cd d33d 8f56 9bbc
000003d0: bc84 bebd 4200 36be 21c8 343e e476 09bd
000003e0: 27ba 3ebe 29f6 1a3d 5a13 94bd 2fa6 183e
000003f0: 4ac3 d4bc aeb4 38bd 2b5b 343e de37 3b3e

features.0.bias f4 [16]
-0.0006415568 -0.020445757 0.02743683 1.3298417e-05 0.018372942 9.606348e-05 -5.711454e-06 -0.016013717
-0.022152277 3.2872842e-05 -8.551552e-05 -0.025438413 -3.3579547e-06 -1.8363662e-05 0.037828762 -1.781763e-05
00000000: 262e 28ba dc7d a7bc 34c3 e03c 441c 5f37
00000010: da82 963c b075 c938 04a5 bfb6 332f 83bc
00000020: b178 b5bc f2e0 0938 cc56 b3b8 3864 d0bc
00000030: 3959 61b6 aa0b 9ab7 55f2 1a3d 1277 95b7

features.1.weight f4 [16]
0.9890892 0.9458361 1.0471956 1.0133375 1.032398 0.9784304 0.98692596 0.97020626
1.0269524 0.98127544 0.98947287 0.9824542 0.98457956 0.99859726 1.0528306 1.0248017
00000000: f334 7d3f 5122 723f 810a 863f 0bb5 813f
00000010: 9e25 843f 6a7a 7a3f 2ea7 7c3f 705f 783f
00000020: 2d73 833f de34 7b3f 184e 7d3f 1e82 7b3f
00000030: 680d 7c3f 12a4 7f3f 27c3 863f b42c 833f

features.1.bias f4 [16]
-0.0045660664 -0.033420358 -0.0040489947 -0.008160432 0.0041501713 -0.0071560238 -0.041478477 -0.016852297
0.009583562 -0.015584932 -0.01810649 -0.03176835 -0.043985754 -0.02322897 -0.004663805 -0.028599361
00000000: f19e 95bb c9e3 08bd 6ead 84bb 55b3 05bc
00000010: 29fe 873b 147d eabb 56e5 29bd d40d 8abc
00000020: 5f04 1d3c f157 7fbc 1054 94bc 881f 02bd
00000030: 682a 34bd ae4a bebc d5d2 98bb 3549 eabc

features.1.running_mean f4 [16]
9.7986915e-05 -0.023597969 0.030802092 -0.0009719995 0.016843883 -0.0033403672 0.0048708813 -0.018141469
-0.022552118 0.00022680282 -0.002716895 -0.024090854 0.00778597 0.0024994344 0.0376947 0.00018400226
00000000: 537e cd38 8750 c1bc ab54 fc3c c8cd 7eba
00000010: 2ffc 893c 10ea 5abb ea9b 9f3b 6b9d 94bc
00000020: 38bf b8bc ebd1 6d39 ef0d 32bb 2f5a c5bc
00000030: 7321 ff3b 8dcd 233b c265 1a3d bbf0 4039

features.1.running_var f4 [16]
0.092494704 0.07384659 0.07824115 0.040916275 0.08043491 0.344841 0.5143891 0.10694543
0.074339196 0.07866184 0.43256 0.15000989 0.8714372 0.16558774 0.0691158 0.06771187
00000000: dd6d bd3d e23c 973d e53c a03d d397 273d
00000010: 0fbb a43d 008f b03e 01af 033f 3506 db3d
00000020: 263f 983d 7519 a13d 8178 dd3e 319c 193e
00000030: 8216 5f3f d58f 293e 968c 8d3d 85ac 8a3d

features.4.weight f4 [32, 16, 3, 3, 3]
0.030686552 0.016545173 0.019885786 0.040537987 0.06783397 -0.0010174883 -0.0435618 0.034728106
-0.0030718092 0.04955847 0.028332448 0.046117965 -0.005711154 -0.046560064 -0.03143277 -2.0662457e-05
-0.037251487 0.044284843 -0.044000756 -0.01228804 -0.019006096 -0.0056529846 0.051163092 -0.024937198
-0.004975961 0.05147723 -0.023886455 0.029510072 0.04636653 0.028331637 0.04958508 0.044819184
-0.00028963585 -0.016852528 0.042389214 0.022347009 -0.007670336 -0.033967838 0.046584122 -0.022143714
-0.01188702 -0.027707241 0.02627773 0.03587653 -0.036140535 0.057392135 -0.027327215 -0.0138359135
-0.017090231 0.05063575 0.044981606 0.009828122 0.04407549 -0.013430294 0.019723685 0.003395324
0.011576334 -0.012528956 0.006212773 0.03988413 0.029983876 -0.039168324 0.0104970895 -1.8270505e-06
0.015907038 0.008894628 -0.049493622 0.03060726 -0.028892398 -0.04576537 -0.0128402645 0.054691624
0.046135012 -0.025900876 0.02251958 0.012129103 0.027930463 0.048134957 0.050234158 0.010604195
0.00082874694 0.035813063 -0.03873908 0.009893173 -0.043984085 -5.1089588e-05 0.0063805166 -0.005653961
0.03842442 -0.009977401 0.026074572 -0.04145754 -0.052298963 0.01862658 -0.007657937 -0.012298231
0.009833753 -0.013468764 0.008962676 -0.0469674 0.03039407 0.009522915 -0.04149592 -0.015106698
-0.013749903 -0.040793277 0.042166233 -0.007861966 0.021733707 0.010420995 0.011015863 -0.0070238193
-0.01828296 -0.016644884 0.048148565 0.028261473 -0.010385506 -0.026502553 -0.044730246 0.0034707617
-0.041233454 0.03106622 0.032901764 0.04310717 -0.040169645 0.043373223 0.033274937 -0.024539243
0.054195233 -0.028804611 0.005615698 0.022675393 -0.043339845 0.026911074 -0.011099773 0.04623849
-0.037493702 -0.02402285 -0.0027339468 -0.04054753 0.0073466366 -0.02824329 -0.038309343 0.025308458
-0.007950831 0.028078856 -0.0336095 0.020834578 -0.004162957 0.0019164884 0.0063752104 -0.012269294
0.032684054 0.004925809 -0.020107957 0.006651805 0.055275306 -0.0028953825 -0.021224545 0.015821138
-0.0042375866 0.016627988 0.017234398 0.027650604 0.008656459 -0.0030738555 -0.00898786 0.059291538
0.02504107 0.04958379 0.048034944 0.042785708 0.0021629804 0.01914118 0.045343906 -0.008552882
-0.011990678 -0.042586654 0.006760933 0.039967377 0.020995475 -0.034632314 0.013836125 0.008125181
0.011001466 0.053057842 0.010186453 0.0420131 0.00045903662 -0.043113083 0.005046402 -0.007510781
-0.005320662 0.025889896 5.294028e-05 -0.018888686 0.04559102 -0.028526131 0.058670435 0.04182985
0.0031002907 0.03361247 0.0063036424 -0.046984438 -0.0053760707 -0.024387823 0.01974717 0.007852952
-0.026796639 0.04584699 -0.0058661285 0.052832417 -0.018261151 -0.030045459 -0.00020855143 -0.0030435687
0.02227959 0.04517996 -0.03339681 0.019593427 -0.02753474 0.05180146 -0.008143857 0.059601564
0.032151874 0.012490818 0.02661483 -0.025760034 -0.04344824 0.028505687 0.016606916 0.016414227
-0.00050514727 0.049877472 -0.033723693 0.021719644 -0.0077794297 0.015309139 0.023074802 -0.024310768
-0.036696088 -0.03134254 -0.012925296 0.000736327 0.021331668 0.02692915 0.049967606 0.0013219819
0.0599737 -0.0056750313 -0.040837187 0.029498642 -0.034223706 -0.021853779 0.036999542 -0.028548412
00000000: 5d62 fb3c be89 873c 84e7 a23c 290b 263d
00000010: 89ec 8a3d 3e5d 85ba dc6d 32bd 0f3f 0e3d
00000020: 6850 49bb d2fd 4a3d 7319 e83c 31e6 3c3d
00000030: a224 bbbb c4b5 3ebd a6bf 00bd 4a54 adb7
00000040: 0495 18bd 0664 353d 233a 34bd c653 49bc
00000050: acb2 9bbc ac3c b9bb 6490 513d 1849 ccbc
00000060: 630d a3bb cad9 523d 87ad c3bc 1bbf f13c
00000070: d5ea 3d3d c017 e83c ba19 4b3d 5294 373d
00000080: 44da 97b9 500e 8abc 50a0 2d3d 1311 b73c
00000090: 7157 fbbb dc21 0bbd fece 3e3d bc66 b5bc
000000a0: c7c1 42bc 4cfa e2bc 6544 d73c 45f3 123d
000000b0: 1908 14bd 0414 6b3d 53dd dfbc 07b0 62bc
000000c0: d000 8cbc 6f67 4f3d a23e 383d 2206 213c
000000d0: 8088 343d bc0a 5cbc 9193 a13c 1684 5e3b
000000e0: aaaa 3d3c 4046 4dbc 8494 cb3b 8b5d 233d
000000f0: bfa0 f53c f76e 20bd fcfb 2b3c fa38 f5b5
00000100: 7a4f 823c c6ba 113c d3b9 4abd 14bc fa3c
00000110: c0af ecbc 7874 3bbd f95f 52bc 5304 603d
00000120: 11f8 3c3d 132e d4bc fb7a b83c 25b9 463c
00000130: 6dce e43c 2929 453d 55c2 4d3d 38bd 2d3c
00000140: 4440 593a b8b0 123d dfac 1ebd fa16 223c
00000150: a828 34bd 0749 56b8 a713 d13b dd44 b9bb
00000160: ed62 1d3d 4178 23bc 579a d53c 62cf 29bd
00000170: 7037 56bd c596 983c 6eef fabb 857e 49bc
00000180: c01d 213c 17ac 5cbc 30d8 123c e360 40bd
00000190: fcfc f83c 0006 1c3c a0f7 29bd 1582 77bc
000001a0: 4647 61bc da16 27bd 80b6 2c3d 7acf 00bc
000001b0: e30a b23c d2bc 2a3c e17b 343c 1128 e6bb
000001c0: 25c6 95bc da5a 88bc 6e37 453d 9b84 e73c
000001d0: f827 2abc e21b d9bc 1037 37bd b875 633b
000001e0: 69e4 28bd 967e fe3c 00c4 063d 2591 303d
000001f0: ed88 24bd 1fa8 313d 4d4b 083d 8606 c9bc
00000200: d2fb 5d3d a6f7 ebbc e403 b83b bfc1 b93c
00000210: 1f85 31bd 9d74 dc3c d3db 35bc 9264 3d3d
00000220: ff92 19bd 91cb c4bc 042c 33bb 2b15 26bd
00000230: 0ebc f03b 795e e7bc 42ea 1cbd af53 cf3c
00000240: 3444 02bc a105 e63c 1daa 09bd 47ad aa3c
00000250: 6a69 88bb ae32 fb3a 24e7 d03b 2605 49bc
00000260: b7df 053d ae68 a13b 71b9 a4bc 62f7 d93b
00000270: 5c68 623d 75c0 3dbb 19df adbc 559b 813c
00000280: 74db 8abb 6b37 883c 272f 8d3c 8583 e23c
00000290: d2d3 0d3c bd72 49bb d141 13bc afdb 723d
000002a0: ee22 cd3c 5f18 4b3d 4ac0 443d 1140 2f3d
000002b0: cac0 0d3b f7cd 9c3c 88ba 393d 6321 0cbc
000002c0: 8c74 44bc 586f 2ebd d18a dd3b d5b4 233d
000002d0: b4fe ab3c 9dda 0dbd eab0 623c 7b1f 053c
000002e0: 7e3f 343c 2e53 593d 15e5 263c ee15 2c3d
000002f0: daaa f039 5897 30bd 4a5c a53b ff1c f6bb
00000300: f358 aebb 0c17 d43c 310c 5e38 72bc 9abc
00000310: a6bd 3a3d a2af e9bc 6950 703d c755 2b3d
00000320: 3f2e 4b3b 3bad 093d c98e ce3b c172 40bd
00000330: c029 b0bb f9c8 c7bc d1c4 a13c aba9 003c
00000340: a084 dbbc 0eca 3b3d a738 c0bb ce66 583d
00000350: 6998 95bc e521 f6bc 99ae 5ab9 9c76 47bb
00000360: b083 b63c 9f0e 393d 18cb 08bd 6582 a03c
00000370: 8990 e1bc c52d 543d d06d 05bc c520 743d
00000380: afb1 033d 4aa6 4c3c 5807 da3c b506 d3bc
00000390: c8f6 31bd c284 e93c 3a0b 883c 2177 863c
000003a0: dc6b 04ba 524c 4c3d db21 0abd 65ed b13c
000003b0: 96ea febb 2fd3 7a3c 5e07 bd3c 6027 c7bc
000003c0: a34e 16bd 0961 00bd 9fc4 53bc 1206 413a
000003d0: c0bf ae3c 859a dc3c d5aa 4c3d 5a46 ad3a
000003e0: fca6 753d 9df5 b9bb e544 27bd 23a7 f13c
000003f0: 282e 0cbd b206 b3bc d58c 173d 5cde e9bc

features.4.bias f4 [32]
-3.563873e-06 2.9350672e-06 2.169265e-05 2.4430756e-05 8.888526e-05 3.6105648e-06 1.38779615e-05 -4.829113e-06
-4.6494772e-08 -8.851019e-06 1.7242386e-05 -4.7737853e-06 -3.1103802e-05 1.1391566e-05 3.3496282e-05 -1.1421143e-05
-1.7509918e-05 2.8979282e-05 -1.3240497e-05 2.9281473e-06 -6.468872e-06 1.4936004e-06 1.6936054e-06 -9.898515e-06
5.2579094e-06 3.0387331e-05 -6.67266e-06 1.42353e-05 -1.8351427e-06 1.0199955e-05 7.89315e-07 8.755028e-06
00000000: df2a 6fb6 12f8 4436 9cf8 b537 a6f0 cc37
00000010: e967 ba38 084d 7236 64d5 6837 c409 a2b6
00000020: 8bb1 47b3 d67e 14b7 bea3 9037 812e a0b6
00000030: 7475 02b8 671e 3f37 5c7e 0c38 709d 3fb7
00000040: 43e2 92b7 8918 f337 8023 5eb7 3081 4436
00000050: 300f d9b6 b877 c835 d74f e335 cc11 26b7
00000060: 196d b036 4ce8 fe37 b7e5 dfb6 26d4 6e37
00000070: 064f f6b5 7920 2b37 50e1 5335 8fe2 1237

features.5.weight f4 [32]
0.9952233 0.99294233 1.0091088 0.99755454 0.99303335 0.9866402 1.0042839 0.9947738
0.98921144 1.0080688 0.9940701 0.99830043 1.0101886 0.991951 1.0052783 1.0110565
1.0082442 1.0238149 1.0018309 1.0004058 1.0085744 0.99498004 1.0071685 1.0077657
1.0138655 1.0129918 1.0012205 1.0040792 1.0031593 1.000732 0.9819657 0.9959196
00000000: f4c6 7e3f 7831 7e3f 7a2a 813f bc5f 7f3f
00000010: 6f37 7e3f 7494 7c3f 608c 803f 7fa9 7e3f
00000020: f63c 7d3f 6608 813f 617b 7e3f 9e90 7f3f
00000030: dc4d 813f 80f0 7d3f f6ac 803f 4d6a 813f
00000040: 250e 813f 5e0c 833f ff3b 803f 4c0d 803f
00000050: f718 813f 03b7 7e3f e6ea 803f 77fe 803f
00000060: 58c6 813f b7a9 813f fe27 803f ab85 803f
00000070: 8667 803f fc17 803f 1b62 7b3f 96f4 7e3f

features.5.bias f4 [32]
-0.021121632 -0.00735081 -0.020258782 -0.009059866 -0.012647761 -0.011094631 -0.015273121 -0.00770396
-0.010653196 -0.0040921858 -0.012535754 -0.01873554 -0.016804468 -0.0063353037 -0.01658108 -0.017284013
-0.015101843 -0.032509048 0.0028322276 -0.016175298 -0.011090995 -0.01676494 -0.015610948 -0.02128025
-0.03002556 -0.01781257 -0.0069927606 -0.01946285 -0.028509047 -0.02358777 -0.019999161 -0.008403921
00000000: 4607 adbc 10df f0bb bff5 a5bc d56f 14bc
00000010: 8e38 4fbc 41c6 35bc 1d3c 7abc 8071 fcbb
00000020: be8a 2ebc be17 86bb c362 4dbc 467b 99bc
00000030: 86a9 89bc 6198 cfbb 0cd5 87bc 3497 8dbc
00000040: b86d 77bc 3528 05bd e59c 393b 0f82 84bc
00000050: 01b7 35bc a156 89bc 10c5 7fbc eb53 aebc
00000060: 2af8 f5bc abeb 91bc 8723 e5bb 8e70 9fbc
00000070: ce8b e9bc 243b c1bc 48d5 a3bc 99b0 09bc

features.5.running_mean f4 [32]
0.6638714 -0.63248175 0.56100386 -0.24367268 -0.13478148 -0.6837531 0.13275634 0.012706536
-0.4611067 -0.6367055 0.82854104 0.6656431 0.72369224 -0.86884254 0.07697273 0.4569131
0.2842712 0.062184244 -0.6960627 0.47729075 0.5221253 0.5729803 0.56641173 -0.026791537
0.22476688 0.2977273 -0.37600964 0.28052363 0.52599674 0.23978251 -0.40953785 0.13267602
00000000: 7af3 293f 53ea 21bf f39d 0f3f 5585 79be
00000010: 2804 0abe 710a 2fbf 47f1 073e 132f 503c
00000020: 2d16 ecbe 22ff 22bf 441b 543f 9667 2a3f
00000030: e543 393f 776c 5ebf e1a3 9d3d 84f0 e93e
00000040: ff8b 913e e8b4 7e3d 2a31 32bf 745f f43e
00000050: 01aa 053f d6ae 123f 5c00 113f ed79 dbbc
00000060: 4a29 663e b66f 983e 5684 c0be cba0 8f3e
00000070: b9a7 063f 8c89 753e f2ae d1be 39dc 073e

features.5.running_var f4 [32]
0.43695515 0.11460353 0.0974132 0.055930726 0.021785378 0.4634191 0.07238202 0.16270366
0.39380857 0.15338129 0.27373123 0.1360714 0.33258095 0.5812299 0.033420008 0.15769182
0.11548861 0.036811054 0.27365008 0.22690704 0.10141412 0.1816011 0.26117003 0.033607066
0.06598913 0.047246788 0.13469407 0.06909526 0.27664703 0.059368875 0.14624538 0.065117374
00000000: 96b8 df3e 41b5 ea3d 9280 c73d 9e17 653d
00000010: 4077 b23c 4545 ed3e 063d 943d ca9b 263e
00000020: 47a1 c93e fc0f 1d3e 8026 8c3e 4d56 0b3e
00000030: 0d48 aa3e 7ccb 143f 6be3 083d f779 213e
00000040: 4b85 ec3d 30c7 163d dd1b 8c3e 525a 683e
00000050: 35b2 cf3d a4f5 393e 14b8 853e 90a7 093d
00000060: 4f25 873d d985 413d 3eed 093e d181 8d3d
00000070: aea4 8d3e c72c 733d 59c1 153e 425c 853d

classifier.2.weight f4 [128, 1792]
-0.01895033 0.0207194 -0.014530613 0.01203757 0.009789911 0.012477417 0.014220258 -0.020429898
-0.021291697 -0.010952939 0.005359593 -0.011813914 -0.026828079 0.009773825 -0.010505724 -0.0098796105
-0.010109158 -0.003964509 -0.013959575 0.009991295 -0.0064594992 -0.022875255 0.0011500802 -0.010189583
0.0006610267 -0.004772468 -0.01044596 -0.00036726354 0.0072763306 0.014060006 0.0029120566 -0.0029727374
-0.025991833 0.0023995496 -0.0024366446 0.0071717426 -0.026269456 0.01083776 0.005169385 -0.0029018263
0.012714615 -0.015807949 -0.0032010819 -0.023347635 0.009947598 -0.021307098 -0.010807802 -0.0036744634
-0.011630434 -0.015311672 -0.016346239 -0.018519545 -0.015386472 0.0016884916 0.0131383985 0.008768282
0.0053911787 -0.019395432 -0.020811161 -0.011553225 0.017968854 -0.0043183244 0.0052437917 0.0011419116
0.0006106428 0.019651122 -0.003921333 -0.025101388 0.0057635503 -0.023889324 0.023088494 -0.0005554408
-0.024732206 -0.0038509944 0.00019421265 0.017565275 -0.024880568 0.016377747 0.013507512 0.0034585765
-0.022091256 0.005059865 0.00064699695 -0.01047195 0.013481425 -0.026520709 0.014536297 0.0087540755
0.020482454 0.02051976 -0.014435742 -0.0030555087 0.022131756 0.0080704205 -0.01668631 0.0018686168
0.019921646 -0.013264005 -0.0075685983 -0.019972762 -0.019320494 0.01673171 -0.016519805 0.002198966
0.01611164 0.0068101585 -0.0009985684 -0.0233575 -0.026773665 0.009607298 0.010740224 0.012382447
-0.0030616503 -0.01710684 -0.0002524785 -0.015983105 -0.014409598 -9.831617e-05 0.005681286 -0.023850981
-0.028050253 0.0014324893 -0.0008622716 -0.009973245 -0.023672871 0.014300845 -0.01853631 0.02358392
-0.0077996547 0.010418755 -5.9097954e-05 -0.015964122 -0.01440162 -0.012111598 -0.0030291623 0.004077486
0.0074291322 0.0125040775 -0.012784219 -0.01549545 0.01826774 0.009375494 -0.0026661851 -0.016116481
-0.012203061 -0.015249528 0.019948026 0.0029763358 -0.012023527 0.009283795 0.01368412 -0.0024738521
0.019103214 -0.0007817409 -0.0030486593 -0.02293024 -0.004199142 0.017021451 -0.00071035884 0.00068026036
0.0021867997 0.0044875727 -0.02235605 -0.019006463 0.0043386803 -0.017404776 -0.0062671592 -0.021551762
-0.011398144 -0.008351088 0.009105787 -0.021015361 0.005249424 -0.014439235 0.021274397 0.002268765
-0.017666213 0.014883758 -0.015563062 -0.008137983 0.0032393015 0.009654439 0.005834813 0.019086478
0.0024793423 0.013232449 0.020966869 0.013672548 0.0070211166 -0.004495424 -0.0016545581 -0.0027803713
0.002783052 -0.01765429 0.015044771 -0.01836913 0.013118829 -0.0273493 -0.022009803 0.0057882825
-0.0046753045 -0.018339159 -0.0055587334 0.017320246 -0.019979926 -0.019529557 0.0035994973 -0.022641271
0.0028828688 -0.0075823897 0.0046390044 0.01473668 0.01336378 -0.008246135 -0.010531833 0.012276901
-0.01590807 -0.0024951224 -0.005381556 -0.0033274817 -0.014211252 -0.014687824 0.008995099 -0.025359279
-0.00876685 -0.021246973 -0.025216483 0.0038971656 0.010981416 -0.021623576 -0.024360517 -0.011788857
-0.0022123524 0.013200036 -0.004993014 -0.0004978093 -0.016703203 -0.0013274649 -0.019292247 -0.006317396
0.011095912 0.0038556752 -0.0010671109 -0.006846281 -0.012065002 0.018325754 0.0133163845 -0.003990176
0.004011941 0.010745639 0.011626067 0.0145957805 0.00936354 0.014832511 -0.005343103 -0.0027155858
00000000: b93d 9bbc bbbb a93c cf11 6ebc 3a39 453c
00000010: dd65 203c 146e 4c3c 16fc 683c 9a5c a7bc
00000020: ed6b aebc f573 33bc 869f af3b 268f 41bc
00000030: 8fc6 dbbc 6522 203c 3320 2cbc 17de 21bc
00000040: e2a0 25bc b6e8 81bb b4b6 64bc 87b2 233c
00000050: 35aa d3bb e364 bbbc 4abe 963a 35f2 26bc
00000060: c048 2d3a 5d62 9cbb 8825 2bbc 478d c0b9
00000070: 496e ee3b f05b 663c 34d8 3e3b 42d2 42bb
00000080: d3ec d4bc c341 1d3b 1db0 1fbb f000 eb3b
00000090: 0b33 d7bc dc90 313c f263 a93b 912c 3ebb
000000a0: f650 503c ac7f 81bc 3ec9 51bb 8a43 bfbc
000000b0: 40fb 223c 398c aebc 3513 31bc 44cf 70bb
000000c0: 938d 3ebc cfdd 7abc 8ce8 85bc 4db6 97bc
000000d0: 8b17 7cbc 6050 dd3a 7042 573c d7a8 0f3c
000000e0: 7ca8 b03b 2be3 9ebc 2b7c aabc bd49 3dbc
000000f0: 6b33 933c bb80 8dbb 1dd4 ab3b 32ac 953a
00000100: 8b13 203a 64fb a03c 867e 80bb 6da1 cdbc
00000110: 2adc bc3b 8bb3 c3bc 1524 bd3c 009b 11ba
00000120: 329b cabc f760 7cbb 90a5 4b39 0de5 8f3c
00000130: 55d2 cbbc a02a 863c 9d4e 5d3c 49a9 623b
00000140: b9f8 b4bc 39cd a53b 3b9b 293a 8b92 2bbc
00000150: 32e1 5c3c f541 d9bc a629 6e3c 416d 0f3c
00000160: d2ca a73c 0e19 a83c e483 6cbc ee3e 48bb
00000170: a84d b53c cc39 043c bab1 88bc 60ec f43a
00000180: b832 a33c 4551 59bc 0102 f8bb eb9d a3bc
00000190: 0346 9ebc f010 893c 8b54 87bc 871c 103b
000001a0: 8ffc 833c c027 df3b 65e2 82ba 3a58 bfbc
000001b0: 7254 dbbc ee67 1d3c c4f7 2f3c bfdf 4a3c
000001c0: f8a5 48bb a523 8cbc 175f 84b9 00ef 82bc
000001d0: 3c16 6cbc 182f ceb8 152a ba3b 2263 c3bc
000001e0: a5c9 e5bc 5dc2 bb3a 110a 62ba d266 23bc
000001f0: 9ced c1bc 174e 6a3c 76d9 97bc 1133 c13c
00000200: 3f94 ffbb 6db3 2a3c f2df 77b8 31c7 82bc
00000210: c6f4 6bbc b96f 46bc e984 46bb 6f9c 853b
00000220: 1470 f33b e7dd 4c3c e774 51bc a1e0 7dbc
00000230: 3aa6 953c ac9b 193c 2abb 2ebb b606 84bc
00000240: 59ef 47bc 28d9 79bc 0b6a a33c a10e 433b
00000250: 54fe 44bc 0f1b 183c 5c33 603c 5a20 22bb
00000260: 587e 9c3c beed 4cba 04cc 47bb 33d8 bbbc
00000270: f598 89bb 9270 8b3c 6037 3aba 8053 323a
00000280: 6950 0f3b 7d0c 933b 0924 b7bc 71b3 9bbc
00000290: 7d2b 8e3b 7694 8ebc be5c cdbb 528d b0bc
000002a0: 48bf 3abc 00d3 08bc 7030 153c 6828 acbc
000002b0: 5c03 ac3b 8b92 6cbc a547 ae3c 8faf 143b
000002c0: bcb8 90bc 01db 733c 37fc 7ebc 2d55 05bc
000002d0: 764a 543b a72d 1e3c f631 bf3b 3f5b 9c3c
000002e0: 767c 223b eacc 583c b6c2 ab3c d302 603c
000002f0: 6511 e63b 5a4e 93bb c2dd d8ba e436 36bb
00000300: dd63 363b bb9f 90bc 587e 763c dc7a 96bc
00000310: 5bf0 563c a40b e0bc e74d b4bc a2ab bd3b
00000320: 4c33 99bb 013c 96bc 0926 b6bb 30e3 8d3c
00000330: f1ac a3bc 73fc 9fbc 8be5 6b3b 307a b9bc
00000340: 83ee 3c3b b275 f8bb ca02 983b 1e72 713c
00000350: c2f3 5a3c cc1a 07bc b68d 2cbc 0e25 493c
00000360: a451 82bc 3585 23bb c457 b0bb e111 5abb
00000370: 50d6 68bc 33a5 70bc 2e60 133c 43be cfbc
00000380: d6a2 0fbc 220e aebc cc92 cebc 9767 7f3b
00000390: 66eb 333c ed23 b1bc b58f c7bc 0d26 41bc
000003a0: 1dfd 10bb f744 583c 709c a3bb 6b7f 02ba
000003b0: 28d5 88bc 55fe adba c60a 9ebc 2902 cfbb
000003c0: a1cb 353c 7faf 7c3b 4dde 8bba c456 e0bb
000003d0: 49ac 45bc e41f 963c f72c 5a3c 06c0 82bb
000003e0: 9a76 833b 7a0e 303c 427b 3e3c 2423 6f3c
000003f0: 8969 193c 0f04 733c 3215 afbb f8f7 31bb

classifier.2.bias f4 [128]
-0.0042333654 0.02425038 0.020500116 -0.0146329645 0.01442285 -0.00341052 -0.011841915 -0.002692269
-0.022295995 0.00089899026 5.191428e-05 -0.0015459881 0.014991711 -0.009549186 -0.022261662 -0.0045966
-0.005631969 -0.012166991 -0.010590034 0.007998483 -0.010478595 0.0059219976 -0.018199475 0.0005231931
0.009407707 -0.021364648 -0.023531094 0.0070029884 0.0076013664 -0.014431572 0.012094184 0.03224854
-0.026640583 -0.0041882987 -0.023010015 -0.011423037 0.005282694 -0.022360573 -0.027654259 -0.007915065
-0.01773459 -0.010554636 0.004925029 0.024379522 -0.01589858 0.016602712 0.028070116 0.0054143015
0.016709637 -0.012894317 0.010817314 0.044051502 -0.0050380863 0.008324179 0.0189709 -0.012379338
-0.01268349 -0.024685824 -0.020551404 0.0041825785 -0.0051474827 0.013638342 -0.0033309995 -0.017475473
0.004478714 -0.014203764 -0.0073096557 -0.020031167 -0.009148376 0.007004564 0.016002826 -0.024368942
-0.019098489 -0.0144678615 -0.019891888 -0.0036583112 0.010035894 0.022514258 4.238034e-05 0.01865595
-0.0023558023 0.010551813 -0.012022454 -0.003645737 0.034119405 -0.008579574 -0.008769143 0.0011879132
-0.02432646 0.024990086 0.0029469891 0.008921913 -0.016823884 0.024131648 -0.019832969 -0.015903408
0.042594183 -0.0028029517 0.007988689 0.0037547546 0.016936637 0.0031039165 -0.005371587 -0.016522484
0.029632796 0.011393999 -0.015549444 -0.004174515 -0.0054892213 -0.0042002993 -0.019370524 -0.0018344321
-0.01100428 0.007573047 0.014248898 -0.028523197 0.006860788 -0.0082904445 -0.005294027 0.018681109
-0.01552966 -0.008751975 -0.027698576 -0.011441426 -0.023765635 -0.01426365 0.003279681 -0.0034704462
00000000: 0bb8 8abb bca8 c63c dcef a73c 1abf 6fbc
00000010: d14d 6c3c 0883 5fbb 9704 42bc c770 30bb
00000020: 17a6 b6bc 37aa 6b3a 89be 5938 c1a2 caba
00000030: cb9f 753c 3074 1cbc 175e b6bc 139f 96bb
00000040: 618c b8bb 0f58 47bc d281 2dbc 120c 033c
00000050: 6aae 2bbc 510d c23b 1117 95bc e526 093a
00000060: c822 1a3c ea04 afbc 48c4 c0bc 5379 e53b
00000070: e214 f93b 6672 6cbc af26 463c 0c17 043d
00000080: 5a3d dabc ff3d 89bb 807f bcbc b127 3bbc
00000090: 731a ad3b 852d b7bc 2f8b e2bc 30ae 01bc
000000a0: 2248 91bc 5aed 2cbc 2362 a13b 90b7 c73c
000000b0: bd3d 82bc 6902 883c 4df3 e53c 746a b13b
000000c0: a6e2 883c af42 53bc 1a3b 313c 596f 343d
000000d0: 8816 a5bb 2362 083c dc68 9b3c b5d2 4abc
000000e0: 6ace 4fbc ed39 cabc 6b5b a8bc 030e 893b
000000f0: 37ac a8bb 5a73 5f3c e64c 5abb b928 8fbc
00000100: 2dc2 923b e7b6 68bc d685 efbb 6718 a4bc
00000110: 12e3 15bc 8b86 e53b 5c18 833c 60a1 c7bc
00000120: 6f74 9cbc 9c0a 6dbc 50f4 a2bc 47c0 6fbb
00000130: 976d 243c d26f b83c 8bc1 3138 5dd4 983c
00000140: ce63 1abb 83e1 2c3c d4f9 44bc 51ed 6ebb
00000150: cac0 0b3d 5791 0cbc 74ac 0fbc c1b3 9b3a
00000160: 4948 c7bc 02b8 cc3c 4622 413b 372d 123c
00000170: 3ed2 89bc bcaf c53c c078 a2bc dd47 82bc
00000180: 3d77 2e3d bab1 37bb fde2 023c 5412 763b
00000190: b4be 8a3c 146b 4b3b 2304 b0bb 295a 87bc
000001a0: 7ac0 f23c e5ad 3a3c 18c3 7ebc 5fca 88bb
000001b0: edde b3bb aaa2 89bb efae 9ebc 5471 f0ba
000001c0: 4c4b 34bc 5327 f83b 3674 693c 7ba9 e9bc
000001d0: 76d0 e03b a5d4 07bc 8479 adbb 2009 993c
000001e0: 1d70 7ebc 7264 0fbc 20e8 e2bc d274 3bbc
000001f0: 26b0 c2bc 16b2 69bc ebef 563b 6d70 63bb

classifier.4.weight f4 [3, 128]
-0.029418489 -0.027471183 0.028599586 0.015498633 -0.033290718 -0.02119694 -0.0034693298 0.0064559844
0.04580293 -0.042826228 0.005277458 -0.005117487 -0.048364263 -0.008131667 0.04727853 0.054547325
-0.07893568 -0.010257725 0.01195398 0.0376535 0.07825737 0.00095401955 -0.07683528 -0.06967629
0.061021972 0.029238233 0.07722354 0.06586637 -0.007717159 0.08046646 -0.04274106 -0.097914934
0.015106405 -0.07043744 0.015089705 0.02637932 -0.058206014 -0.003786004 0.057675432 -0.0031483846
-0.066859424 0.0040651956 0.0739237 0.079074405 -0.0031589514 0.0044967327 -0.13366169 0.067940325
-0.01865946 0.041259017 0.0029780597 0.072973065 -0.02740335 0.07787099 -0.063562244 0.081164464
0.06043062 0.07274981 -0.07276896 0.021066925 0.0008748484 -0.090551086 -0.055944562 -0.02363253
0.030398302 0.044783313 -0.08191563 -0.0059360303 0.02281161 0.0022855415 -0.057800002 -0.08707292
0.0045314087 -0.008827709 -0.02189145 -0.06865007 0.08193661 -0.05721703 -0.039801814 -0.07748894
0.020561062 -0.026743373 -0.012437409 -0.040268477 0.03442717 0.064257786 0.04234583 0.032902487
0.059048966 0.08961771 -0.073178604 0.023830246 0.018968593 -0.12937379 0.054623157 0.06592619
0.049490623 -0.05644874 0.03686937 -0.08373153 -0.06462084 -0.02183061 -0.016454209 0.03947213
0.07124757 -0.04193623 0.059971727 -0.03376703 0.0022672436 -0.08747876 -0.008046041 -0.09132092
0.07318266 -0.07780456 -0.048296362 -0.042294685 0.008315459 -0.03222738 -0.078673445 0.0071539404
0.044517905 0.07759487 -0.01684134 -0.01886488 0.049240965 0.009117382 0.020241318 -0.011985658
0.040164765 -0.06348189 -0.0725567 0.025466379 0.06555399 -0.010478726 0.07491599 -0.038448058
0.050171476 0.06373287 0.052975036 -0.004867781 0.05756189 0.056717135 -0.05016129 -0.029884547
-0.03170372 0.038270157 0.034314625 0.07727712 -0.0213542 0.026842318 -0.079446614 -0.0049510794
-0.05861422 -0.058536306 -0.07793513 -0.025128616 0.065266795 -0.025586328 -0.00083096663 0.053234436
0.0752336 -0.06522274 -0.08180829 0.037595302 -0.073680885 0.07819109 -0.0028854292 -0.055695016
-0.07570904 0.023324698 -0.057565484 -0.054384403 0.08199113 0.0437512 -0.026340764 -0.036982793
-0.021652691 0.076937385 -0.014913132 -0.035561386 0.022811614 0.061727002 0.00094518805 -0.04603284
-0.07512745 -0.080230325 -0.021285024 -0.03785174 -0.043170054 0.004351481 0.03398741 0.05646449
-0.07506547 -0.050242804 -0.022940986 -0.053491093 -0.039796796 0.056910217 0.0815131 0.062129613
0.07501811 0.09512767 0.03516971 -0.03690365 -0.045839395 -0.04423155 0.043986157 -0.08405262
0.032473672 0.05240139 -0.0776085 0.045528416 -0.04516539 -0.010053254 -0.08104531 0.023887474
0.028985256 0.027637364 -0.024957445 -0.05425357 -0.057892725 0.021424357 -0.00043295798 0.027641099
-0.023670666 -0.050696798 -0.05261642 0.06699 0.015130989 0.005342004 0.03624047 0.06457299
0.0044398634 -0.09395214 0.06856814 0.065498844 0.034896653 -0.02109039 0.061148345 0.021025695
-0.07122526 0.07435957 -0.004275555 0.0800092 -0.057149336 0.043518607 -0.009392387 0.009170957
-0.06798127 0.0013647318 0.04796533 -0.048084565 -0.032233164 -0.05298202 -0.08951459 0.072322994
00000000: 0bff f0bc 3f0b e1bc ae49 ea3c faed 7d3c
00000010: d95b 08bd 35a5 adbc b25d 63bb b98c d33b
00000020: da9b 3b3d 8e6a 2fbd 87ee ac3b 98b0 a7bb
00000030: 9b19 46bd af3a 05bc 22a7 413d 046d 5f3d
00000040: 08a9 a1bd 0410 28bc a0da 433c 8e3a 1a3d
00000050: 6645 a03d 2b17 7a3a d15b 9dbd 71b2 8ebd
00000060: 2df2 793d 0585 ef3c 6027 9e3d f3e4 863d
00000070: 39e0 fcbb 99cb a43d 4011 2fbd a087 c8bd
00000080: db80 773c 8141 90bd cf3a 773c 7219 d83c
00000090: 6e69 6ebd 9b1e 78bb 133d 6c3d 2155 4ebb
000000a0: 98ed 88bd 5535 853b 4f65 973d c3f1 a13d
000000b0: 6906 4fbb 5459 933b 9cde 08be 4c24 8b3d
000000c0: b9db 98bc 37ff 283d 8d2b 433b e772 953d
000000d0: fe7c e0bc d37a 9f3d ec2c 82bd 8e39 a63d
000000e0: 1986 773d dafd 943d e407 95bd 8b94 ac3c
000000f0: 1556 653a d972 b9bd 2026 65bd 0299 c1bc
00000100: dc05 f93c b56e 373d 62c3 a7bd 0883 c2bb
00000110: 6adf ba3c 06c9 153b b2bf 6cbd 4953 b2bd
00000120: 367c 943b 18a2 10bc b355 b3bc 6898 8cbd
00000130: 62ce a73d 685c 6abd 3a07 23bd 85b2 9ebd
00000140: ac6f a83c eb14 dbbc 46c6 4bbc 8ff0 24bd
00000150: 8103 0d3d 9699 833d d272 2d3d c2c4 063d
00000160: 54dd 713d 7d89 b73d aade 95bd a637 c33c
00000170: 0664 9b3c 907a 04be 88bc 5f3d 4f04 873d
00000180: aeb6 4a3d cb36 67bd 5604 173d 707b abbd
00000190: ee57 84bd 1cd6 b2bc faca 86bc 87ad 213d
000001a0: 3fea 913d 53c5 2bbd eaa4 753d 4c4f 0abd
000001b0: 0996 143b 1028 b3bd 8bd3 03bc 7606 bbbd
000001c0: cae0 953d ff57 9fbd 68d2 45bd 313d 2dbd
000001d0: 903d 083c db00 04bd 8b1f a1bd 9a6b ea3b
000001e0: 6858 363d 0fea 9e3d daf6 89bc 858a 9abc
000001f0: e5b0 493d 1261 153c 1fd1 a53c 7e5f 44bc
00000200: cf83 243d cb02 82bd 9b98 94bd de9e d03c
00000210: 2c41 863d f6ae 2bbc 8e6d 993d b67b 1dbd
00000220: 9b80 4d3d 6186 823d 5afc 583d e881 9fbb
00000230: 04c6 6b3d 3a50 683d ed75 4dbd 70d0 f4bc
00000240: c3db 01bd 2bc1 1c3d 7e8d 0c3d 7743 9e3d
00000250: 01ef aebc 6ce4 db3c e8b4 a2bd aa3c a2bb
00000260: 7715 70bd c4c3 6fbd 749c 9fbd 87da cdbc
00000270: 99aa 853d 6b9a d1bc 3ad5 59ba 5a0c 5a3d
00000280: 1314 9a3d 8093 85bd 1b8b a7bd 88fd 193d
00000290: 01e6 96bd a622 a03d 7819 3dbb 7520 64bd
000002a0: 570d 9bbd 7013 bf3c c9c9 6bbd 2ec2 5ebd
000002b0: f7ea a73d 7534 333d 96c8 d7bc 457b 17bd
000002c0: fc60 b1bc 5991 9d3d 3656 74bc d1a8 11bd
000002d0: 6cdf ba3c 74d5 7c3d 7fc6 773a ee8c 3cbd
000002e0: 6cdc 99bd cc4f a4bd ee5d aebc 6d0a 1bbd
000002f0: 15d3 30bd de96 8e3b 6236 0b3d 4f47 673d
00000300: edbb 99bd 66cb 4dbd bcee bbbc 7a19 5bbd
00000310: f701 23bd b01a 693d 57f0 a63d 9f7b 7e3d
00000320: 18a3 993d 4cd2 c23d 1d0e 103d 4828 17bd
00000330: 17c2 3bbd 242c 35bd d42a 343d c823 acbd
00000340: 1d03 053d d7a2 563d 35f1 9ebd 017c 3a3d
00000350: 58ff 38bd 67b6 24bc 15fb a5bd aaaf c33c
00000360: 7d72 ed3c c167 e23c 8e73 ccbc fe38 5ebd
00000370: ec20 6dbd 2282 af3c a3fe e2b9 966f e23c
00000380: fce8 c1bc 72a7 4fbd 5184 57bd 0e32 893d
00000390: f8e7 773c fa0b af3b e370 143d d83e 843d
000003a0: 467c 913b fb69 c0bd 746d 8c3d 4224 863d
000003b0: cbef 0e3d c1c5 acbc b076 7a3d 143e ac3c
000003c0: 8dde 91bd d549 983d f419 8cbb dddb a33d
000003d0: 6c15 6abd 9140 323d 87e2 19bc c841 163c
000003e0: c439 8bbd cde0 b23a 4b77 443d 52f4 44bd
000003f0: ec06 04bd ad03 59bd 6d53 b7bd 141e 943d

classifier.4.bias f4 [3]
0.050753355 -0.08405176 -0.051648937
00000000: c0e2 4f3d 5423 acbd d68d 53bd
